{"format": "layers-model", "generatedBy": "keras v2.15.0", "convertedBy": "TensorFlow.js Converter v4.20.0", "modelTopology": {"keras_version": "2.15.0", "backend": "tensorflow", "model_config": {"class_name": "Functional", "config": {"name": "model_1", "trainable": true, "layers": [{"class_name": "InputLayer", "config": {"batch_input_shape": [null, 224, 224, 3], "dtype": "float32", "sparse": false, "ragged": false, "name": "image_input"}, "name": "image_input", "inbound_nodes": []}, {"class_name": "Functional", "config": {"name": "efficientnetb0", "trainable": true, "layers": [{"class_name": "InputLayer", "config": {"batch_input_shape": [null, 224, 224, 3], "dtype": "float32", "sparse": false, "ragged": false, "name": "input_2"}, "name": "input_2", "inbound_nodes": []}, {"class_name": "Rescaling", "config": {"name": "rescaling_2", "trainable": true, "dtype": "float32", "scale": 0.00392156862745098, "offset": 0.0}, "name": "rescaling_2", "inbound_nodes": [[["input_2", 0, 0, {}]]]}, {"class_name": "Normalization", "config": {"name": "normalization_1", "trainable": true, "dtype": "float32", "axis": [3], "invert": false, "mean": null, "variance": null}, "name": "normalization_1", "inbound_nodes": [[["rescaling_2", 0, 0, {}]]]}, {"class_name": "Rescaling", "config": {"name": "rescaling_3", "trainable": true, "dtype": "float32", "scale": [2.0896918976428642, 2.1128856368212916, 2.1081851067789197], "offset": 0.0}, "name": "rescaling_3", "inbound_nodes": [[["normalization_1", 0, 0, {}]]]}, {"class_name": "ZeroPadding2D", "config": {"name": "stem_conv_pad", "trainable": true, "dtype": "float32", "padding": [[0, 1], [0, 1]], "data_format": "channels_last"}, "name": "stem_conv_pad", "inbound_nodes": [[["rescaling_3", 0, 0, {}]]]}, {"class_name": "Conv2D", "config": {"name": "stem_conv", "trainable": true, "dtype": "float32", "filters": 32, "kernel_size": [3, 3], "strides": [2, 2], "padding": "valid", "data_format": "channels_last", "dilation_rate": [1, 1], "groups": 1, "activation": "linear", "use_bias": false, "kernel_initializer": {"module": "keras.initializers", "class_name": "VarianceScaling", "config": {"scale": 2.0, "mode": "fan_out", "distribution": "truncated_normal", "seed": null}, "registered_name": null}, "bias_initializer": {"module": "keras.initializers", "class_name": "Zeros", "config": {}, "registered_name": null}, "kernel_regularizer": null, "bias_regularizer": null, "activity_regularizer": null, "kernel_constraint": null, "bias_constraint": null}, "name": "stem_conv", "inbound_nodes": [[["stem_conv_pad", 0, 0, {}]]]}, {"class_name": "BatchNormalization", "config": {"name": "stem_bn", "trainable": true, "dtype": "float32", "axis": [3], "momentum": 0.99, "epsilon": 0.001, "center": true, "scale": true, "beta_initializer": {"module": "keras.initializers", "class_name": "Zeros", "config": {}, "registered_name": null}, "gamma_initializer": {"module": "keras.initializers", "class_name": "Ones", "config": {}, "registered_name": null}, "moving_mean_initializer": {"module": "keras.initializers", "class_name": "Zeros", "config": {}, "registered_name": null}, "moving_variance_initializer": {"module": "keras.initializers", "class_name": "Ones", "config": {}, "registered_name": null}, "beta_regularizer": null, "gamma_regularizer": null, "beta_constraint": null, "gamma_constraint": null}, "name": "stem_bn", "inbound_nodes": [[["stem_conv", 0, 0, {}]]]}, {"class_name": "Activation", "config": {"name": "stem_activation", "trainable": true, "dtype": "float32", "activation": "swish"}, "name": "stem_activation", "inbound_nodes": [[["stem_bn", 0, 0, {}]]]}, {"class_name": "DepthwiseConv2D", "config": {"name": "block1a_dwconv", "trainable": true, "dtype": "float32", "kernel_size": [3, 3], "strides": [1, 1], "padding": "same", "data_format": "channels_last", "dilation_rate": [1, 1], "groups": 1, "activation": "linear", "use_bias": false, "bias_initializer": {"module": "keras.initializers", "class_name": "Zeros", "config": {}, "registered_name": null}, "bias_regularizer": null, "activity_regularizer": null, "bias_constraint": null, "depth_multiplier": 1, "depthwise_initializer": {"module": "keras.initializers", "class_name": "VarianceScaling", "config": {"scale": 2.0, "mode": "fan_out", "distribution": "truncated_normal", "seed": null}, "registered_name": null}, "depthwise_regularizer": null, "depthwise_constraint": null}, "name": "block1a_dwconv", "inbound_nodes": [[["stem_activation", 0, 0, {}]]]}, {"class_name": "BatchNormalization", "config": {"name": "block1a_bn", "trainable": true, "dtype": "float32", "axis": [3], "momentum": 0.99, "epsilon": 0.001, "center": true, "scale": true, "beta_initializer": {"module": "keras.initializers", "class_name": "Zeros", "config": {}, "registered_name": null}, "gamma_initializer": {"module": "keras.initializers", "class_name": "Ones", "config": {}, "registered_name": null}, "moving_mean_initializer": {"module": "keras.initializers", "class_name": "Zeros", "config": {}, "registered_name": null}, "moving_variance_initializer": {"module": "keras.initializers", "class_name": "Ones", "config": {}, "registered_name": null}, "beta_regularizer": null, "gamma_regularizer": null, "beta_constraint": null, "gamma_constraint": null}, "name": "block1a_bn", "inbound_nodes": [[["block1a_dwconv", 0, 0, {}]]]}, {"class_name": "Activation", "config": {"name": "block1a_activation", "trainable": true, "dtype": "float32", "activation": "swish"}, "name": "block1a_activation", "inbound_nodes": [[["block1a_bn", 0, 0, {}]]]}, {"class_name": "GlobalAveragePooling2D", "config": {"name": "block1a_se_squeeze", "trainable": true, "dtype": "float32", "data_format": "channels_last", "keepdims": false}, "name": "block1a_se_squeeze", "inbound_nodes": [[["block1a_activation", 0, 0, {}]]]}, {"class_name": "Reshape", "config": {"name": "block1a_se_reshape", "trainable": true, "dtype": "float32", "target_shape": [1, 1, 32]}, "name": "block1a_se_reshape", "inbound_nodes": [[["block1a_se_squeeze", 0, 0, {}]]]}, {"class_name": "Conv2D", "config": {"name": "block1a_se_reduce", "trainable": true, "dtype": "float32", "filters": 8, "kernel_size": [1, 1], "strides": [1, 1], "padding": "same", "data_format": "channels_last", "dilation_rate": [1, 1], "groups": 1, "activation": "swish", "use_bias": true, "kernel_initializer": {"module": "keras.initializers", "class_name": "VarianceScaling", "config": {"scale": 2.0, "mode": "fan_out", "distribution": "truncated_normal", "seed": null}, "registered_name": null}, "bias_initializer": {"module": "keras.initializers", "class_name": "Zeros", "config": {}, "registered_name": null}, "kernel_regularizer": null, "bias_regularizer": null, "activity_regularizer": null, "kernel_constraint": null, "bias_constraint": null}, "name": "block1a_se_reduce", "inbound_nodes": [[["block1a_se_reshape", 0, 0, {}]]]}, {"class_name": "Conv2D", "config": {"name": "block1a_se_expand", "trainable": true, "dtype": "float32", "filters": 32, "kernel_size": [1, 1], "strides": [1, 1], "padding": "same", "data_format": "channels_last", "dilation_rate": [1, 1], "groups": 1, "activation": "sigmoid", "use_bias": true, "kernel_initializer": {"module": "keras.initializers", "class_name": "VarianceScaling", "config": {"scale": 2.0, "mode": "fan_out", "distribution": "truncated_normal", "seed": null}, "registered_name": null}, "bias_initializer": {"module": "keras.initializers", "class_name": "Zeros", "config": {}, "registered_name": null}, "kernel_regularizer": null, "bias_regularizer": null, "activity_regularizer": null, "kernel_constraint": null, "bias_constraint": null}, "name": "block1a_se_expand", "inbound_nodes": [[["block1a_se_reduce", 0, 0, {}]]]}, {"class_name": "Multiply", "config": {"name": "block1a_se_excite", "trainable": true, "dtype": "float32"}, "name": "block1a_se_excite", "inbound_nodes": [[["block1a_activation", 0, 0, {}], ["block1a_se_expand", 0, 0, {}]]]}, {"class_name": "Conv2D", "config": {"name": "block1a_project_conv", "trainable": true, "dtype": "float32", "filters": 16, "kernel_size": [1, 1], "strides": [1, 1], "padding": "same", "data_format": "channels_last", "dilation_rate": [1, 1], "groups": 1, "activation": "linear", "use_bias": false, "kernel_initializer": {"module": "keras.initializers", "class_name": "VarianceScaling", "config": {"scale": 2.0, "mode": "fan_out", "distribution": "truncated_normal", "seed": null}, "registered_name": null}, "bias_initializer": {"module": "keras.initializers", "class_name": "Zeros", "config": {}, "registered_name": null}, "kernel_regularizer": null, "bias_regularizer": null, "activity_regularizer": null, "kernel_constraint": null, "bias_constraint": null}, "name": "block1a_project_conv", "inbound_nodes": [[["block1a_se_excite", 0, 0, {}]]]}, {"class_name": "BatchNormalization", "config": {"name": "block1a_project_bn", "trainable": true, "dtype": "float32", "axis": [3], "momentum": 0.99, "epsilon": 0.001, "center": true, "scale": true, "beta_initializer": {"module": "keras.initializers", "class_name": "Zeros", "config": {}, "registered_name": null}, "gamma_initializer": {"module": "keras.initializers", "class_name": "Ones", "config": {}, "registered_name": null}, "moving_mean_initializer": {"module": "keras.initializers", "class_name": "Zeros", "config": {}, "registered_name": null}, "moving_variance_initializer": {"module": "keras.initializers", "class_name": "Ones", "config": {}, "registered_name": null}, "beta_regularizer": null, "gamma_regularizer": null, "beta_constraint": null, "gamma_constraint": null}, "name": "block1a_project_bn", "inbound_nodes": [[["block1a_project_conv", 0, 0, {}]]]}, {"class_name": "Conv2D", "config": {"name": "block2a_expand_conv", "trainable": true, "dtype": "float32", "filters": 96, "kernel_size": [1, 1], "strides": [1, 1], "padding": "same", "data_format": "channels_last", "dilation_rate": [1, 1], "groups": 1, "activation": "linear", "use_bias": false, "kernel_initializer": {"module": "keras.initializers", "class_name": "VarianceScaling", "config": {"scale": 2.0, "mode": "fan_out", "distribution": "truncated_normal", "seed": null}, "registered_name": null}, "bias_initializer": {"module": "keras.initializers", "class_name": "Zeros", "config": {}, "registered_name": null}, "kernel_regularizer": null, "bias_regularizer": null, "activity_regularizer": null, "kernel_constraint": null, "bias_constraint": null}, "name": "block2a_expand_conv", "inbound_nodes": [[["block1a_project_bn", 0, 0, {}]]]}, {"class_name": "BatchNormalization", "config": {"name": "block2a_expand_bn", "trainable": true, "dtype": "float32", "axis": [3], "momentum": 0.99, "epsilon": 0.001, "center": true, "scale": true, "beta_initializer": {"module": "keras.initializers", "class_name": "Zeros", "config": {}, "registered_name": null}, "gamma_initializer": {"module": "keras.initializers", "class_name": "Ones", "config": {}, "registered_name": null}, "moving_mean_initializer": {"module": "keras.initializers", "class_name": "Zeros", "config": {}, "registered_name": null}, "moving_variance_initializer": {"module": "keras.initializers", "class_name": "Ones", "config": {}, "registered_name": null}, "beta_regularizer": null, "gamma_regularizer": null, "beta_constraint": null, "gamma_constraint": null}, "name": "block2a_expand_bn", "inbound_nodes": [[["block2a_expand_conv", 0, 0, {}]]]}, {"class_name": "Activation", "config": {"name": "block2a_expand_activation", "trainable": true, "dtype": "float32", "activation": "swish"}, "name": "block2a_expand_activation", "inbound_nodes": [[["block2a_expand_bn", 0, 0, {}]]]}, {"class_name": "ZeroPadding2D", "config": {"name": "block2a_dwconv_pad", "trainable": true, "dtype": "float32", "padding": [[0, 1], [0, 1]], "data_format": "channels_last"}, "name": "block2a_dwconv_pad", "inbound_nodes": [[["block2a_expand_activation", 0, 0, {}]]]}, {"class_name": "DepthwiseConv2D", "config": {"name": "block2a_dwconv", "trainable": true, "dtype": "float32", "kernel_size": [3, 3], "strides": [2, 2], "padding": "valid", "data_format": "channels_last", "dilation_rate": [1, 1], "groups": 1, "activation": "linear", "use_bias": false, "bias_initializer": {"module": "keras.initializers", "class_name": "Zeros", "config": {}, "registered_name": null}, "bias_regularizer": null, "activity_regularizer": null, "bias_constraint": null, "depth_multiplier": 1, "depthwise_initializer": {"module": "keras.initializers", "class_name": "VarianceScaling", "config": {"scale": 2.0, "mode": "fan_out", "distribution": "truncated_normal", "seed": null}, "registered_name": null}, "depthwise_regularizer": null, "depthwise_constraint": null}, "name": "block2a_dwconv", "inbound_nodes": [[["block2a_dwconv_pad", 0, 0, {}]]]}, {"class_name": "BatchNormalization", "config": {"name": "block2a_bn", "trainable": true, "dtype": "float32", "axis": [3], "momentum": 0.99, "epsilon": 0.001, "center": true, "scale": true, "beta_initializer": {"module": "keras.initializers", "class_name": "Zeros", "config": {}, "registered_name": null}, "gamma_initializer": {"module": "keras.initializers", "class_name": "Ones", "config": {}, "registered_name": null}, "moving_mean_initializer": {"module": "keras.initializers", "class_name": "Zeros", "config": {}, "registered_name": null}, "moving_variance_initializer": {"module": "keras.initializers", "class_name": "Ones", "config": {}, "registered_name": null}, "beta_regularizer": null, "gamma_regularizer": null, "beta_constraint": null, "gamma_constraint": null}, "name": "block2a_bn", "inbound_nodes": [[["block2a_dwconv", 0, 0, {}]]]}, {"class_name": "Activation", "config": {"name": "block2a_activation", "trainable": true, "dtype": "float32", "activation": "swish"}, "name": "block2a_activation", "inbound_nodes": [[["block2a_bn", 0, 0, {}]]]}, {"class_name": "GlobalAveragePooling2D", "config": {"name": "block2a_se_squeeze", "trainable": true, "dtype": "float32", "data_format": "channels_last", "keepdims": false}, "name": "block2a_se_squeeze", "inbound_nodes": [[["block2a_activation", 0, 0, {}]]]}, {"class_name": "Reshape", "config": {"name": "block2a_se_reshape", "trainable": true, "dtype": "float32", "target_shape": [1, 1, 96]}, "name": "block2a_se_reshape", "inbound_nodes": [[["block2a_se_squeeze", 0, 0, {}]]]}, {"class_name": "Conv2D", "config": {"name": "block2a_se_reduce", "trainable": true, "dtype": "float32", "filters": 4, "kernel_size": [1, 1], "strides": [1, 1], "padding": "same", "data_format": "channels_last", "dilation_rate": [1, 1], "groups": 1, "activation": "swish", "use_bias": true, "kernel_initializer": {"module": "keras.initializers", "class_name": "VarianceScaling", "config": {"scale": 2.0, "mode": "fan_out", "distribution": "truncated_normal", "seed": null}, "registered_name": null}, "bias_initializer": {"module": "keras.initializers", "class_name": "Zeros", "config": {}, "registered_name": null}, "kernel_regularizer": null, "bias_regularizer": null, "activity_regularizer": null, "kernel_constraint": null, "bias_constraint": null}, "name": "block2a_se_reduce", "inbound_nodes": [[["block2a_se_reshape", 0, 0, {}]]]}, {"class_name": "Conv2D", "config": {"name": "block2a_se_expand", "trainable": true, "dtype": "float32", "filters": 96, "kernel_size": [1, 1], "strides": [1, 1], "padding": "same", "data_format": "channels_last", "dilation_rate": [1, 1], "groups": 1, "activation": "sigmoid", "use_bias": true, "kernel_initializer": {"module": "keras.initializers", "class_name": "VarianceScaling", "config": {"scale": 2.0, "mode": "fan_out", "distribution": "truncated_normal", "seed": null}, "registered_name": null}, "bias_initializer": {"module": "keras.initializers", "class_name": "Zeros", "config": {}, "registered_name": null}, "kernel_regularizer": null, "bias_regularizer": null, "activity_regularizer": null, "kernel_constraint": null, "bias_constraint": null}, "name": "block2a_se_expand", "inbound_nodes": [[["block2a_se_reduce", 0, 0, {}]]]}, {"class_name": "Multiply", "config": {"name": "block2a_se_excite", "trainable": true, "dtype": "float32"}, "name": "block2a_se_excite", "inbound_nodes": [[["block2a_activation", 0, 0, {}], ["block2a_se_expand", 0, 0, {}]]]}, {"class_name": "Conv2D", "config": {"name": "block2a_project_conv", "trainable": true, "dtype": "float32", "filters": 24, "kernel_size": [1, 1], "strides": [1, 1], "padding": "same", "data_format": "channels_last", "dilation_rate": [1, 1], "groups": 1, "activation": "linear", "use_bias": false, "kernel_initializer": {"module": "keras.initializers", "class_name": "VarianceScaling", "config": {"scale": 2.0, "mode": "fan_out", "distribution": "truncated_normal", "seed": null}, "registered_name": null}, "bias_initializer": {"module": "keras.initializers", "class_name": "Zeros", "config": {}, "registered_name": null}, "kernel_regularizer": null, "bias_regularizer": null, "activity_regularizer": null, "kernel_constraint": null, "bias_constraint": null}, "name": "block2a_project_conv", "inbound_nodes": [[["block2a_se_excite", 0, 0, {}]]]}, {"class_name": "BatchNormalization", "config": {"name": "block2a_project_bn", "trainable": true, "dtype": "float32", "axis": [3], "momentum": 0.99, "epsilon": 0.001, "center": true, "scale": true, "beta_initializer": {"module": "keras.initializers", "class_name": "Zeros", "config": {}, "registered_name": null}, "gamma_initializer": {"module": "keras.initializers", "class_name": "Ones", "config": {}, "registered_name": null}, "moving_mean_initializer": {"module": "keras.initializers", "class_name": "Zeros", "config": {}, "registered_name": null}, "moving_variance_initializer": {"module": "keras.initializers", "class_name": "Ones", "config": {}, "registered_name": null}, "beta_regularizer": null, "gamma_regularizer": null, "beta_constraint": null, "gamma_constraint": null}, "name": "block2a_project_bn", "inbound_nodes": [[["block2a_project_conv", 0, 0, {}]]]}, {"class_name": "Conv2D", "config": {"name": "block2b_expand_conv", "trainable": true, "dtype": "float32", "filters": 144, "kernel_size": [1, 1], "strides": [1, 1], "padding": "same", "data_format": "channels_last", "dilation_rate": [1, 1], "groups": 1, "activation": "linear", "use_bias": false, "kernel_initializer": {"module": "keras.initializers", "class_name": "VarianceScaling", "config": {"scale": 2.0, "mode": "fan_out", "distribution": "truncated_normal", "seed": null}, "registered_name": null}, "bias_initializer": {"module": "keras.initializers", "class_name": "Zeros", "config": {}, "registered_name": null}, "kernel_regularizer": null, "bias_regularizer": null, "activity_regularizer": null, "kernel_constraint": null, "bias_constraint": null}, "name": "block2b_expand_conv", "inbound_nodes": [[["block2a_project_bn", 0, 0, {}]]]}, {"class_name": "BatchNormalization", "config": {"name": "block2b_expand_bn", "trainable": true, "dtype": "float32", "axis": [3], "momentum": 0.99, "epsilon": 0.001, "center": true, "scale": true, "beta_initializer": {"module": "keras.initializers", "class_name": "Zeros", "config": {}, "registered_name": null}, "gamma_initializer": {"module": "keras.initializers", "class_name": "Ones", "config": {}, "registered_name": null}, "moving_mean_initializer": {"module": "keras.initializers", "class_name": "Zeros", "config": {}, "registered_name": null}, "moving_variance_initializer": {"module": "keras.initializers", "class_name": "Ones", "config": {}, "registered_name": null}, "beta_regularizer": null, "gamma_regularizer": null, "beta_constraint": null, "gamma_constraint": null}, "name": "block2b_expand_bn", "inbound_nodes": [[["block2b_expand_conv", 0, 0, {}]]]}, {"class_name": "Activation", "config": {"name": "block2b_expand_activation", "trainable": true, "dtype": "float32", "activation": "swish"}, "name": "block2b_expand_activation", "inbound_nodes": [[["block2b_expand_bn", 0, 0, {}]]]}, {"class_name": "DepthwiseConv2D", "config": {"name": "block2b_dwconv", "trainable": true, "dtype": "float32", "kernel_size": [3, 3], "strides": [1, 1], "padding": "same", "data_format": "channels_last", "dilation_rate": [1, 1], "groups": 1, "activation": "linear", "use_bias": false, "bias_initializer": {"module": "keras.initializers", "class_name": "Zeros", "config": {}, "registered_name": null}, "bias_regularizer": null, "activity_regularizer": null, "bias_constraint": null, "depth_multiplier": 1, "depthwise_initializer": {"module": "keras.initializers", "class_name": "VarianceScaling", "config": {"scale": 2.0, "mode": "fan_out", "distribution": "truncated_normal", "seed": null}, "registered_name": null}, "depthwise_regularizer": null, "depthwise_constraint": null}, "name": "block2b_dwconv", "inbound_nodes": [[["block2b_expand_activation", 0, 0, {}]]]}, {"class_name": "BatchNormalization", "config": {"name": "block2b_bn", "trainable": true, "dtype": "float32", "axis": [3], "momentum": 0.99, "epsilon": 0.001, "center": true, "scale": true, "beta_initializer": {"module": "keras.initializers", "class_name": "Zeros", "config": {}, "registered_name": null}, "gamma_initializer": {"module": "keras.initializers", "class_name": "Ones", "config": {}, "registered_name": null}, "moving_mean_initializer": {"module": "keras.initializers", "class_name": "Zeros", "config": {}, "registered_name": null}, "moving_variance_initializer": {"module": "keras.initializers", "class_name": "Ones", "config": {}, "registered_name": null}, "beta_regularizer": null, "gamma_regularizer": null, "beta_constraint": null, "gamma_constraint": null}, "name": "block2b_bn", "inbound_nodes": [[["block2b_dwconv", 0, 0, {}]]]}, {"class_name": "Activation", "config": {"name": "block2b_activation", "trainable": true, "dtype": "float32", "activation": "swish"}, "name": "block2b_activation", "inbound_nodes": [[["block2b_bn", 0, 0, {}]]]}, {"class_name": "GlobalAveragePooling2D", "config": {"name": "block2b_se_squeeze", "trainable": true, "dtype": "float32", "data_format": "channels_last", "keepdims": false}, "name": "block2b_se_squeeze", "inbound_nodes": [[["block2b_activation", 0, 0, {}]]]}, {"class_name": "Reshape", "config": {"name": "block2b_se_reshape", "trainable": true, "dtype": "float32", "target_shape": [1, 1, 144]}, "name": "block2b_se_reshape", "inbound_nodes": [[["block2b_se_squeeze", 0, 0, {}]]]}, {"class_name": "Conv2D", "config": {"name": "block2b_se_reduce", "trainable": true, "dtype": "float32", "filters": 6, "kernel_size": [1, 1], "strides": [1, 1], "padding": "same", "data_format": "channels_last", "dilation_rate": [1, 1], "groups": 1, "activation": "swish", "use_bias": true, "kernel_initializer": {"module": "keras.initializers", "class_name": "VarianceScaling", "config": {"scale": 2.0, "mode": "fan_out", "distribution": "truncated_normal", "seed": null}, "registered_name": null}, "bias_initializer": {"module": "keras.initializers", "class_name": "Zeros", "config": {}, "registered_name": null}, "kernel_regularizer": null, "bias_regularizer": null, "activity_regularizer": null, "kernel_constraint": null, "bias_constraint": null}, "name": "block2b_se_reduce", "inbound_nodes": [[["block2b_se_reshape", 0, 0, {}]]]}, {"class_name": "Conv2D", "config": {"name": "block2b_se_expand", "trainable": true, "dtype": "float32", "filters": 144, "kernel_size": [1, 1], "strides": [1, 1], "padding": "same", "data_format": "channels_last", "dilation_rate": [1, 1], "groups": 1, "activation": "sigmoid", "use_bias": true, "kernel_initializer": {"module": "keras.initializers", "class_name": "VarianceScaling", "config": {"scale": 2.0, "mode": "fan_out", "distribution": "truncated_normal", "seed": null}, "registered_name": null}, "bias_initializer": {"module": "keras.initializers", "class_name": "Zeros", "config": {}, "registered_name": null}, "kernel_regularizer": null, "bias_regularizer": null, "activity_regularizer": null, "kernel_constraint": null, "bias_constraint": null}, "name": "block2b_se_expand", "inbound_nodes": [[["block2b_se_reduce", 0, 0, {}]]]}, {"class_name": "Multiply", "config": {"name": "block2b_se_excite", "trainable": true, "dtype": "float32"}, "name": "block2b_se_excite", "inbound_nodes": [[["block2b_activation", 0, 0, {}], ["block2b_se_expand", 0, 0, {}]]]}, {"class_name": "Conv2D", "config": {"name": "block2b_project_conv", "trainable": true, "dtype": "float32", "filters": 24, "kernel_size": [1, 1], "strides": [1, 1], "padding": "same", "data_format": "channels_last", "dilation_rate": [1, 1], "groups": 1, "activation": "linear", "use_bias": false, "kernel_initializer": {"module": "keras.initializers", "class_name": "VarianceScaling", "config": {"scale": 2.0, "mode": "fan_out", "distribution": "truncated_normal", "seed": null}, "registered_name": null}, "bias_initializer": {"module": "keras.initializers", "class_name": "Zeros", "config": {}, "registered_name": null}, "kernel_regularizer": null, "bias_regularizer": null, "activity_regularizer": null, "kernel_constraint": null, "bias_constraint": null}, "name": "block2b_project_conv", "inbound_nodes": [[["block2b_se_excite", 0, 0, {}]]]}, {"class_name": "BatchNormalization", "config": {"name": "block2b_project_bn", "trainable": true, "dtype": "float32", "axis": [3], "momentum": 0.99, "epsilon": 0.001, "center": true, "scale": true, "beta_initializer": {"module": "keras.initializers", "class_name": "Zeros", "config": {}, "registered_name": null}, "gamma_initializer": {"module": "keras.initializers", "class_name": "Ones", "config": {}, "registered_name": null}, "moving_mean_initializer": {"module": "keras.initializers", "class_name": "Zeros", "config": {}, "registered_name": null}, "moving_variance_initializer": {"module": "keras.initializers", "class_name": "Ones", "config": {}, "registered_name": null}, "beta_regularizer": null, "gamma_regularizer": null, "beta_constraint": null, "gamma_constraint": null}, "name": "block2b_project_bn", "inbound_nodes": [[["block2b_project_conv", 0, 0, {}]]]}, {"class_name": "Dropout", "config": {"name": "block2b_drop", "trainable": true, "dtype": "float32", "rate": 0.025, "noise_shape": [null, 1, 1, 1], "seed": null}, "name": "block2b_drop", "inbound_nodes": [[["block2b_project_bn", 0, 0, {}]]]}, {"class_name": "Add", "config": {"name": "block2b_add", "trainable": true, "dtype": "float32"}, "name": "block2b_add", "inbound_nodes": [[["block2b_drop", 0, 0, {}], ["block2a_project_bn", 0, 0, {}]]]}, {"class_name": "Conv2D", "config": {"name": "block3a_expand_conv", "trainable": true, "dtype": "float32", "filters": 144, "kernel_size": [1, 1], "strides": [1, 1], "padding": "same", "data_format": "channels_last", "dilation_rate": [1, 1], "groups": 1, "activation": "linear", "use_bias": false, "kernel_initializer": {"module": "keras.initializers", "class_name": "VarianceScaling", "config": {"scale": 2.0, "mode": "fan_out", "distribution": "truncated_normal", "seed": null}, "registered_name": null}, "bias_initializer": {"module": "keras.initializers", "class_name": "Zeros", "config": {}, "registered_name": null}, "kernel_regularizer": null, "bias_regularizer": null, "activity_regularizer": null, "kernel_constraint": null, "bias_constraint": null}, "name": "block3a_expand_conv", "inbound_nodes": [[["block2b_add", 0, 0, {}]]]}, {"class_name": "BatchNormalization", "config": {"name": "block3a_expand_bn", "trainable": true, "dtype": "float32", "axis": [3], "momentum": 0.99, "epsilon": 0.001, "center": true, "scale": true, "beta_initializer": {"module": "keras.initializers", "class_name": "Zeros", "config": {}, "registered_name": null}, "gamma_initializer": {"module": "keras.initializers", "class_name": "Ones", "config": {}, "registered_name": null}, "moving_mean_initializer": {"module": "keras.initializers", "class_name": "Zeros", "config": {}, "registered_name": null}, "moving_variance_initializer": {"module": "keras.initializers", "class_name": "Ones", "config": {}, "registered_name": null}, "beta_regularizer": null, "gamma_regularizer": null, "beta_constraint": null, "gamma_constraint": null}, "name": "block3a_expand_bn", "inbound_nodes": [[["block3a_expand_conv", 0, 0, {}]]]}, {"class_name": "Activation", "config": {"name": "block3a_expand_activation", "trainable": true, "dtype": "float32", "activation": "swish"}, "name": "block3a_expand_activation", "inbound_nodes": [[["block3a_expand_bn", 0, 0, {}]]]}, {"class_name": "ZeroPadding2D", "config": {"name": "block3a_dwconv_pad", "trainable": true, "dtype": "float32", "padding": [[1, 2], [1, 2]], "data_format": "channels_last"}, "name": "block3a_dwconv_pad", "inbound_nodes": [[["block3a_expand_activation", 0, 0, {}]]]}, {"class_name": "DepthwiseConv2D", "config": {"name": "block3a_dwconv", "trainable": true, "dtype": "float32", "kernel_size": [5, 5], "strides": [2, 2], "padding": "valid", "data_format": "channels_last", "dilation_rate": [1, 1], "groups": 1, "activation": "linear", "use_bias": false, "bias_initializer": {"module": "keras.initializers", "class_name": "Zeros", "config": {}, "registered_name": null}, "bias_regularizer": null, "activity_regularizer": null, "bias_constraint": null, "depth_multiplier": 1, "depthwise_initializer": {"module": "keras.initializers", "class_name": "VarianceScaling", "config": {"scale": 2.0, "mode": "fan_out", "distribution": "truncated_normal", "seed": null}, "registered_name": null}, "depthwise_regularizer": null, "depthwise_constraint": null}, "name": "block3a_dwconv", "inbound_nodes": [[["block3a_dwconv_pad", 0, 0, {}]]]}, {"class_name": "BatchNormalization", "config": {"name": "block3a_bn", "trainable": true, "dtype": "float32", "axis": [3], "momentum": 0.99, "epsilon": 0.001, "center": true, "scale": true, "beta_initializer": {"module": "keras.initializers", "class_name": "Zeros", "config": {}, "registered_name": null}, "gamma_initializer": {"module": "keras.initializers", "class_name": "Ones", "config": {}, "registered_name": null}, "moving_mean_initializer": {"module": "keras.initializers", "class_name": "Zeros", "config": {}, "registered_name": null}, "moving_variance_initializer": {"module": "keras.initializers", "class_name": "Ones", "config": {}, "registered_name": null}, "beta_regularizer": null, "gamma_regularizer": null, "beta_constraint": null, "gamma_constraint": null}, "name": "block3a_bn", "inbound_nodes": [[["block3a_dwconv", 0, 0, {}]]]}, {"class_name": "Activation", "config": {"name": "block3a_activation", "trainable": true, "dtype": "float32", "activation": "swish"}, "name": "block3a_activation", "inbound_nodes": [[["block3a_bn", 0, 0, {}]]]}, {"class_name": "GlobalAveragePooling2D", "config": {"name": "block3a_se_squeeze", "trainable": true, "dtype": "float32", "data_format": "channels_last", "keepdims": false}, "name": "block3a_se_squeeze", "inbound_nodes": [[["block3a_activation", 0, 0, {}]]]}, {"class_name": "Reshape", "config": {"name": "block3a_se_reshape", "trainable": true, "dtype": "float32", "target_shape": [1, 1, 144]}, "name": "block3a_se_reshape", "inbound_nodes": [[["block3a_se_squeeze", 0, 0, {}]]]}, {"class_name": "Conv2D", "config": {"name": "block3a_se_reduce", "trainable": true, "dtype": "float32", "filters": 6, "kernel_size": [1, 1], "strides": [1, 1], "padding": "same", "data_format": "channels_last", "dilation_rate": [1, 1], "groups": 1, "activation": "swish", "use_bias": true, "kernel_initializer": {"module": "keras.initializers", "class_name": "VarianceScaling", "config": {"scale": 2.0, "mode": "fan_out", "distribution": "truncated_normal", "seed": null}, "registered_name": null}, "bias_initializer": {"module": "keras.initializers", "class_name": "Zeros", "config": {}, "registered_name": null}, "kernel_regularizer": null, "bias_regularizer": null, "activity_regularizer": null, "kernel_constraint": null, "bias_constraint": null}, "name": "block3a_se_reduce", "inbound_nodes": [[["block3a_se_reshape", 0, 0, {}]]]}, {"class_name": "Conv2D", "config": {"name": "block3a_se_expand", "trainable": true, "dtype": "float32", "filters": 144, "kernel_size": [1, 1], "strides": [1, 1], "padding": "same", "data_format": "channels_last", "dilation_rate": [1, 1], "groups": 1, "activation": "sigmoid", "use_bias": true, "kernel_initializer": {"module": "keras.initializers", "class_name": "VarianceScaling", "config": {"scale": 2.0, "mode": "fan_out", "distribution": "truncated_normal", "seed": null}, "registered_name": null}, "bias_initializer": {"module": "keras.initializers", "class_name": "Zeros", "config": {}, "registered_name": null}, "kernel_regularizer": null, "bias_regularizer": null, "activity_regularizer": null, "kernel_constraint": null, "bias_constraint": null}, "name": "block3a_se_expand", "inbound_nodes": [[["block3a_se_reduce", 0, 0, {}]]]}, {"class_name": "Multiply", "config": {"name": "block3a_se_excite", "trainable": true, "dtype": "float32"}, "name": "block3a_se_excite", "inbound_nodes": [[["block3a_activation", 0, 0, {}], ["block3a_se_expand", 0, 0, {}]]]}, {"class_name": "Conv2D", "config": {"name": "block3a_project_conv", "trainable": true, "dtype": "float32", "filters": 40, "kernel_size": [1, 1], "strides": [1, 1], "padding": "same", "data_format": "channels_last", "dilation_rate": [1, 1], "groups": 1, "activation": "linear", "use_bias": false, "kernel_initializer": {"module": "keras.initializers", "class_name": "VarianceScaling", "config": {"scale": 2.0, "mode": "fan_out", "distribution": "truncated_normal", "seed": null}, "registered_name": null}, "bias_initializer": {"module": "keras.initializers", "class_name": "Zeros", "config": {}, "registered_name": null}, "kernel_regularizer": null, "bias_regularizer": null, "activity_regularizer": null, "kernel_constraint": null, "bias_constraint": null}, "name": "block3a_project_conv", "inbound_nodes": [[["block3a_se_excite", 0, 0, {}]]]}, {"class_name": "BatchNormalization", "config": {"name": "block3a_project_bn", "trainable": true, "dtype": "float32", "axis": [3], "momentum": 0.99, "epsilon": 0.001, "center": true, "scale": true, "beta_initializer": {"module": "keras.initializers", "class_name": "Zeros", "config": {}, "registered_name": null}, "gamma_initializer": {"module": "keras.initializers", "class_name": "Ones", "config": {}, "registered_name": null}, "moving_mean_initializer": {"module": "keras.initializers", "class_name": "Zeros", "config": {}, "registered_name": null}, "moving_variance_initializer": {"module": "keras.initializers", "class_name": "Ones", "config": {}, "registered_name": null}, "beta_regularizer": null, "gamma_regularizer": null, "beta_constraint": null, "gamma_constraint": null}, "name": "block3a_project_bn", "inbound_nodes": [[["block3a_project_conv", 0, 0, {}]]]}, {"class_name": "Conv2D", "config": {"name": "block3b_expand_conv", "trainable": true, "dtype": "float32", "filters": 240, "kernel_size": [1, 1], "strides": [1, 1], "padding": "same", "data_format": "channels_last", "dilation_rate": [1, 1], "groups": 1, "activation": "linear", "use_bias": false, "kernel_initializer": {"module": "keras.initializers", "class_name": "VarianceScaling", "config": {"scale": 2.0, "mode": "fan_out", "distribution": "truncated_normal", "seed": null}, "registered_name": null}, "bias_initializer": {"module": "keras.initializers", "class_name": "Zeros", "config": {}, "registered_name": null}, "kernel_regularizer": null, "bias_regularizer": null, "activity_regularizer": null, "kernel_constraint": null, "bias_constraint": null}, "name": "block3b_expand_conv", "inbound_nodes": [[["block3a_project_bn", 0, 0, {}]]]}, {"class_name": "BatchNormalization", "config": {"name": "block3b_expand_bn", "trainable": true, "dtype": "float32", "axis": [3], "momentum": 0.99, "epsilon": 0.001, "center": true, "scale": true, "beta_initializer": {"module": "keras.initializers", "class_name": "Zeros", "config": {}, "registered_name": null}, "gamma_initializer": {"module": "keras.initializers", "class_name": "Ones", "config": {}, "registered_name": null}, "moving_mean_initializer": {"module": "keras.initializers", "class_name": "Zeros", "config": {}, "registered_name": null}, "moving_variance_initializer": {"module": "keras.initializers", "class_name": "Ones", "config": {}, "registered_name": null}, "beta_regularizer": null, "gamma_regularizer": null, "beta_constraint": null, "gamma_constraint": null}, "name": "block3b_expand_bn", "inbound_nodes": [[["block3b_expand_conv", 0, 0, {}]]]}, {"class_name": "Activation", "config": {"name": "block3b_expand_activation", "trainable": true, "dtype": "float32", "activation": "swish"}, "name": "block3b_expand_activation", "inbound_nodes": [[["block3b_expand_bn", 0, 0, {}]]]}, {"class_name": "DepthwiseConv2D", "config": {"name": "block3b_dwconv", "trainable": true, "dtype": "float32", "kernel_size": [5, 5], "strides": [1, 1], "padding": "same", "data_format": "channels_last", "dilation_rate": [1, 1], "groups": 1, "activation": "linear", "use_bias": false, "bias_initializer": {"module": "keras.initializers", "class_name": "Zeros", "config": {}, "registered_name": null}, "bias_regularizer": null, "activity_regularizer": null, "bias_constraint": null, "depth_multiplier": 1, "depthwise_initializer": {"module": "keras.initializers", "class_name": "VarianceScaling", "config": {"scale": 2.0, "mode": "fan_out", "distribution": "truncated_normal", "seed": null}, "registered_name": null}, "depthwise_regularizer": null, "depthwise_constraint": null}, "name": "block3b_dwconv", "inbound_nodes": [[["block3b_expand_activation", 0, 0, {}]]]}, {"class_name": "BatchNormalization", "config": {"name": "block3b_bn", "trainable": true, "dtype": "float32", "axis": [3], "momentum": 0.99, "epsilon": 0.001, "center": true, "scale": true, "beta_initializer": {"module": "keras.initializers", "class_name": "Zeros", "config": {}, "registered_name": null}, "gamma_initializer": {"module": "keras.initializers", "class_name": "Ones", "config": {}, "registered_name": null}, "moving_mean_initializer": {"module": "keras.initializers", "class_name": "Zeros", "config": {}, "registered_name": null}, "moving_variance_initializer": {"module": "keras.initializers", "class_name": "Ones", "config": {}, "registered_name": null}, "beta_regularizer": null, "gamma_regularizer": null, "beta_constraint": null, "gamma_constraint": null}, "name": "block3b_bn", "inbound_nodes": [[["block3b_dwconv", 0, 0, {}]]]}, {"class_name": "Activation", "config": {"name": "block3b_activation", "trainable": true, "dtype": "float32", "activation": "swish"}, "name": "block3b_activation", "inbound_nodes": [[["block3b_bn", 0, 0, {}]]]}, {"class_name": "GlobalAveragePooling2D", "config": {"name": "block3b_se_squeeze", "trainable": true, "dtype": "float32", "data_format": "channels_last", "keepdims": false}, "name": "block3b_se_squeeze", "inbound_nodes": [[["block3b_activation", 0, 0, {}]]]}, {"class_name": "Reshape", "config": {"name": "block3b_se_reshape", "trainable": true, "dtype": "float32", "target_shape": [1, 1, 240]}, "name": "block3b_se_reshape", "inbound_nodes": [[["block3b_se_squeeze", 0, 0, {}]]]}, {"class_name": "Conv2D", "config": {"name": "block3b_se_reduce", "trainable": true, "dtype": "float32", "filters": 10, "kernel_size": [1, 1], "strides": [1, 1], "padding": "same", "data_format": "channels_last", "dilation_rate": [1, 1], "groups": 1, "activation": "swish", "use_bias": true, "kernel_initializer": {"module": "keras.initializers", "class_name": "VarianceScaling", "config": {"scale": 2.0, "mode": "fan_out", "distribution": "truncated_normal", "seed": null}, "registered_name": null}, "bias_initializer": {"module": "keras.initializers", "class_name": "Zeros", "config": {}, "registered_name": null}, "kernel_regularizer": null, "bias_regularizer": null, "activity_regularizer": null, "kernel_constraint": null, "bias_constraint": null}, "name": "block3b_se_reduce", "inbound_nodes": [[["block3b_se_reshape", 0, 0, {}]]]}, {"class_name": "Conv2D", "config": {"name": "block3b_se_expand", "trainable": true, "dtype": "float32", "filters": 240, "kernel_size": [1, 1], "strides": [1, 1], "padding": "same", "data_format": "channels_last", "dilation_rate": [1, 1], "groups": 1, "activation": "sigmoid", "use_bias": true, "kernel_initializer": {"module": "keras.initializers", "class_name": "VarianceScaling", "config": {"scale": 2.0, "mode": "fan_out", "distribution": "truncated_normal", "seed": null}, "registered_name": null}, "bias_initializer": {"module": "keras.initializers", "class_name": "Zeros", "config": {}, "registered_name": null}, "kernel_regularizer": null, "bias_regularizer": null, "activity_regularizer": null, "kernel_constraint": null, "bias_constraint": null}, "name": "block3b_se_expand", "inbound_nodes": [[["block3b_se_reduce", 0, 0, {}]]]}, {"class_name": "Multiply", "config": {"name": "block3b_se_excite", "trainable": true, "dtype": "float32"}, "name": "block3b_se_excite", "inbound_nodes": [[["block3b_activation", 0, 0, {}], ["block3b_se_expand", 0, 0, {}]]]}, {"class_name": "Conv2D", "config": {"name": "block3b_project_conv", "trainable": true, "dtype": "float32", "filters": 40, "kernel_size": [1, 1], "strides": [1, 1], "padding": "same", "data_format": "channels_last", "dilation_rate": [1, 1], "groups": 1, "activation": "linear", "use_bias": false, "kernel_initializer": {"module": "keras.initializers", "class_name": "VarianceScaling", "config": {"scale": 2.0, "mode": "fan_out", "distribution": "truncated_normal", "seed": null}, "registered_name": null}, "bias_initializer": {"module": "keras.initializers", "class_name": "Zeros", "config": {}, "registered_name": null}, "kernel_regularizer": null, "bias_regularizer": null, "activity_regularizer": null, "kernel_constraint": null, "bias_constraint": null}, "name": "block3b_project_conv", "inbound_nodes": [[["block3b_se_excite", 0, 0, {}]]]}, {"class_name": "BatchNormalization", "config": {"name": "block3b_project_bn", "trainable": true, "dtype": "float32", "axis": [3], "momentum": 0.99, "epsilon": 0.001, "center": true, "scale": true, "beta_initializer": {"module": "keras.initializers", "class_name": "Zeros", "config": {}, "registered_name": null}, "gamma_initializer": {"module": "keras.initializers", "class_name": "Ones", "config": {}, "registered_name": null}, "moving_mean_initializer": {"module": "keras.initializers", "class_name": "Zeros", "config": {}, "registered_name": null}, "moving_variance_initializer": {"module": "keras.initializers", "class_name": "Ones", "config": {}, "registered_name": null}, "beta_regularizer": null, "gamma_regularizer": null, "beta_constraint": null, "gamma_constraint": null}, "name": "block3b_project_bn", "inbound_nodes": [[["block3b_project_conv", 0, 0, {}]]]}, {"class_name": "Dropout", "config": {"name": "block3b_drop", "trainable": true, "dtype": "float32", "rate": 0.05, "noise_shape": [null, 1, 1, 1], "seed": null}, "name": "block3b_drop", "inbound_nodes": [[["block3b_project_bn", 0, 0, {}]]]}, {"class_name": "Add", "config": {"name": "block3b_add", "trainable": true, "dtype": "float32"}, "name": "block3b_add", "inbound_nodes": [[["block3b_drop", 0, 0, {}], ["block3a_project_bn", 0, 0, {}]]]}, {"class_name": "Conv2D", "config": {"name": "block4a_expand_conv", "trainable": true, "dtype": "float32", "filters": 240, "kernel_size": [1, 1], "strides": [1, 1], "padding": "same", "data_format": "channels_last", "dilation_rate": [1, 1], "groups": 1, "activation": "linear", "use_bias": false, "kernel_initializer": {"module": "keras.initializers", "class_name": "VarianceScaling", "config": {"scale": 2.0, "mode": "fan_out", "distribution": "truncated_normal", "seed": null}, "registered_name": null}, "bias_initializer": {"module": "keras.initializers", "class_name": "Zeros", "config": {}, "registered_name": null}, "kernel_regularizer": null, "bias_regularizer": null, "activity_regularizer": null, "kernel_constraint": null, "bias_constraint": null}, "name": "block4a_expand_conv", "inbound_nodes": [[["block3b_add", 0, 0, {}]]]}, {"class_name": "BatchNormalization", "config": {"name": "block4a_expand_bn", "trainable": true, "dtype": "float32", "axis": [3], "momentum": 0.99, "epsilon": 0.001, "center": true, "scale": true, "beta_initializer": {"module": "keras.initializers", "class_name": "Zeros", "config": {}, "registered_name": null}, "gamma_initializer": {"module": "keras.initializers", "class_name": "Ones", "config": {}, "registered_name": null}, "moving_mean_initializer": {"module": "keras.initializers", "class_name": "Zeros", "config": {}, "registered_name": null}, "moving_variance_initializer": {"module": "keras.initializers", "class_name": "Ones", "config": {}, "registered_name": null}, "beta_regularizer": null, "gamma_regularizer": null, "beta_constraint": null, "gamma_constraint": null}, "name": "block4a_expand_bn", "inbound_nodes": [[["block4a_expand_conv", 0, 0, {}]]]}, {"class_name": "Activation", "config": {"name": "block4a_expand_activation", "trainable": true, "dtype": "float32", "activation": "swish"}, "name": "block4a_expand_activation", "inbound_nodes": [[["block4a_expand_bn", 0, 0, {}]]]}, {"class_name": "ZeroPadding2D", "config": {"name": "block4a_dwconv_pad", "trainable": true, "dtype": "float32", "padding": [[0, 1], [0, 1]], "data_format": "channels_last"}, "name": "block4a_dwconv_pad", "inbound_nodes": [[["block4a_expand_activation", 0, 0, {}]]]}, {"class_name": "DepthwiseConv2D", "config": {"name": "block4a_dwconv", "trainable": true, "dtype": "float32", "kernel_size": [3, 3], "strides": [2, 2], "padding": "valid", "data_format": "channels_last", "dilation_rate": [1, 1], "groups": 1, "activation": "linear", "use_bias": false, "bias_initializer": {"module": "keras.initializers", "class_name": "Zeros", "config": {}, "registered_name": null}, "bias_regularizer": null, "activity_regularizer": null, "bias_constraint": null, "depth_multiplier": 1, "depthwise_initializer": {"module": "keras.initializers", "class_name": "VarianceScaling", "config": {"scale": 2.0, "mode": "fan_out", "distribution": "truncated_normal", "seed": null}, "registered_name": null}, "depthwise_regularizer": null, "depthwise_constraint": null}, "name": "block4a_dwconv", "inbound_nodes": [[["block4a_dwconv_pad", 0, 0, {}]]]}, {"class_name": "BatchNormalization", "config": {"name": "block4a_bn", "trainable": true, "dtype": "float32", "axis": [3], "momentum": 0.99, "epsilon": 0.001, "center": true, "scale": true, "beta_initializer": {"module": "keras.initializers", "class_name": "Zeros", "config": {}, "registered_name": null}, "gamma_initializer": {"module": "keras.initializers", "class_name": "Ones", "config": {}, "registered_name": null}, "moving_mean_initializer": {"module": "keras.initializers", "class_name": "Zeros", "config": {}, "registered_name": null}, "moving_variance_initializer": {"module": "keras.initializers", "class_name": "Ones", "config": {}, "registered_name": null}, "beta_regularizer": null, "gamma_regularizer": null, "beta_constraint": null, "gamma_constraint": null}, "name": "block4a_bn", "inbound_nodes": [[["block4a_dwconv", 0, 0, {}]]]}, {"class_name": "Activation", "config": {"name": "block4a_activation", "trainable": true, "dtype": "float32", "activation": "swish"}, "name": "block4a_activation", "inbound_nodes": [[["block4a_bn", 0, 0, {}]]]}, {"class_name": "GlobalAveragePooling2D", "config": {"name": "block4a_se_squeeze", "trainable": true, "dtype": "float32", "data_format": "channels_last", "keepdims": false}, "name": "block4a_se_squeeze", "inbound_nodes": [[["block4a_activation", 0, 0, {}]]]}, {"class_name": "Reshape", "config": {"name": "block4a_se_reshape", "trainable": true, "dtype": "float32", "target_shape": [1, 1, 240]}, "name": "block4a_se_reshape", "inbound_nodes": [[["block4a_se_squeeze", 0, 0, {}]]]}, {"class_name": "Conv2D", "config": {"name": "block4a_se_reduce", "trainable": true, "dtype": "float32", "filters": 10, "kernel_size": [1, 1], "strides": [1, 1], "padding": "same", "data_format": "channels_last", "dilation_rate": [1, 1], "groups": 1, "activation": "swish", "use_bias": true, "kernel_initializer": {"module": "keras.initializers", "class_name": "VarianceScaling", "config": {"scale": 2.0, "mode": "fan_out", "distribution": "truncated_normal", "seed": null}, "registered_name": null}, "bias_initializer": {"module": "keras.initializers", "class_name": "Zeros", "config": {}, "registered_name": null}, "kernel_regularizer": null, "bias_regularizer": null, "activity_regularizer": null, "kernel_constraint": null, "bias_constraint": null}, "name": "block4a_se_reduce", "inbound_nodes": [[["block4a_se_reshape", 0, 0, {}]]]}, {"class_name": "Conv2D", "config": {"name": "block4a_se_expand", "trainable": true, "dtype": "float32", "filters": 240, "kernel_size": [1, 1], "strides": [1, 1], "padding": "same", "data_format": "channels_last", "dilation_rate": [1, 1], "groups": 1, "activation": "sigmoid", "use_bias": true, "kernel_initializer": {"module": "keras.initializers", "class_name": "VarianceScaling", "config": {"scale": 2.0, "mode": "fan_out", "distribution": "truncated_normal", "seed": null}, "registered_name": null}, "bias_initializer": {"module": "keras.initializers", "class_name": "Zeros", "config": {}, "registered_name": null}, "kernel_regularizer": null, "bias_regularizer": null, "activity_regularizer": null, "kernel_constraint": null, "bias_constraint": null}, "name": "block4a_se_expand", "inbound_nodes": [[["block4a_se_reduce", 0, 0, {}]]]}, {"class_name": "Multiply", "config": {"name": "block4a_se_excite", "trainable": true, "dtype": "float32"}, "name": "block4a_se_excite", "inbound_nodes": [[["block4a_activation", 0, 0, {}], ["block4a_se_expand", 0, 0, {}]]]}, {"class_name": "Conv2D", "config": {"name": "block4a_project_conv", "trainable": true, "dtype": "float32", "filters": 80, "kernel_size": [1, 1], "strides": [1, 1], "padding": "same", "data_format": "channels_last", "dilation_rate": [1, 1], "groups": 1, "activation": "linear", "use_bias": false, "kernel_initializer": {"module": "keras.initializers", "class_name": "VarianceScaling", "config": {"scale": 2.0, "mode": "fan_out", "distribution": "truncated_normal", "seed": null}, "registered_name": null}, "bias_initializer": {"module": "keras.initializers", "class_name": "Zeros", "config": {}, "registered_name": null}, "kernel_regularizer": null, "bias_regularizer": null, "activity_regularizer": null, "kernel_constraint": null, "bias_constraint": null}, "name": "block4a_project_conv", "inbound_nodes": [[["block4a_se_excite", 0, 0, {}]]]}, {"class_name": "BatchNormalization", "config": {"name": "block4a_project_bn", "trainable": true, "dtype": "float32", "axis": [3], "momentum": 0.99, "epsilon": 0.001, "center": true, "scale": true, "beta_initializer": {"module": "keras.initializers", "class_name": "Zeros", "config": {}, "registered_name": null}, "gamma_initializer": {"module": "keras.initializers", "class_name": "Ones", "config": {}, "registered_name": null}, "moving_mean_initializer": {"module": "keras.initializers", "class_name": "Zeros", "config": {}, "registered_name": null}, "moving_variance_initializer": {"module": "keras.initializers", "class_name": "Ones", "config": {}, "registered_name": null}, "beta_regularizer": null, "gamma_regularizer": null, "beta_constraint": null, "gamma_constraint": null}, "name": "block4a_project_bn", "inbound_nodes": [[["block4a_project_conv", 0, 0, {}]]]}, {"class_name": "Conv2D", "config": {"name": "block4b_expand_conv", "trainable": true, "dtype": "float32", "filters": 480, "kernel_size": [1, 1], "strides": [1, 1], "padding": "same", "data_format": "channels_last", "dilation_rate": [1, 1], "groups": 1, "activation": "linear", "use_bias": false, "kernel_initializer": {"module": "keras.initializers", "class_name": "VarianceScaling", "config": {"scale": 2.0, "mode": "fan_out", "distribution": "truncated_normal", "seed": null}, "registered_name": null}, "bias_initializer": {"module": "keras.initializers", "class_name": "Zeros", "config": {}, "registered_name": null}, "kernel_regularizer": null, "bias_regularizer": null, "activity_regularizer": null, "kernel_constraint": null, "bias_constraint": null}, "name": "block4b_expand_conv", "inbound_nodes": [[["block4a_project_bn", 0, 0, {}]]]}, {"class_name": "BatchNormalization", "config": {"name": "block4b_expand_bn", "trainable": true, "dtype": "float32", "axis": [3], "momentum": 0.99, "epsilon": 0.001, "center": true, "scale": true, "beta_initializer": {"module": "keras.initializers", "class_name": "Zeros", "config": {}, "registered_name": null}, "gamma_initializer": {"module": "keras.initializers", "class_name": "Ones", "config": {}, "registered_name": null}, "moving_mean_initializer": {"module": "keras.initializers", "class_name": "Zeros", "config": {}, "registered_name": null}, "moving_variance_initializer": {"module": "keras.initializers", "class_name": "Ones", "config": {}, "registered_name": null}, "beta_regularizer": null, "gamma_regularizer": null, "beta_constraint": null, "gamma_constraint": null}, "name": "block4b_expand_bn", "inbound_nodes": [[["block4b_expand_conv", 0, 0, {}]]]}, {"class_name": "Activation", "config": {"name": "block4b_expand_activation", "trainable": true, "dtype": "float32", "activation": "swish"}, "name": "block4b_expand_activation", "inbound_nodes": [[["block4b_expand_bn", 0, 0, {}]]]}, {"class_name": "DepthwiseConv2D", "config": {"name": "block4b_dwconv", "trainable": true, "dtype": "float32", "kernel_size": [3, 3], "strides": [1, 1], "padding": "same", "data_format": "channels_last", "dilation_rate": [1, 1], "groups": 1, "activation": "linear", "use_bias": false, "bias_initializer": {"module": "keras.initializers", "class_name": "Zeros", "config": {}, "registered_name": null}, "bias_regularizer": null, "activity_regularizer": null, "bias_constraint": null, "depth_multiplier": 1, "depthwise_initializer": {"module": "keras.initializers", "class_name": "VarianceScaling", "config": {"scale": 2.0, "mode": "fan_out", "distribution": "truncated_normal", "seed": null}, "registered_name": null}, "depthwise_regularizer": null, "depthwise_constraint": null}, "name": "block4b_dwconv", "inbound_nodes": [[["block4b_expand_activation", 0, 0, {}]]]}, {"class_name": "BatchNormalization", "config": {"name": "block4b_bn", "trainable": true, "dtype": "float32", "axis": [3], "momentum": 0.99, "epsilon": 0.001, "center": true, "scale": true, "beta_initializer": {"module": "keras.initializers", "class_name": "Zeros", "config": {}, "registered_name": null}, "gamma_initializer": {"module": "keras.initializers", "class_name": "Ones", "config": {}, "registered_name": null}, "moving_mean_initializer": {"module": "keras.initializers", "class_name": "Zeros", "config": {}, "registered_name": null}, "moving_variance_initializer": {"module": "keras.initializers", "class_name": "Ones", "config": {}, "registered_name": null}, "beta_regularizer": null, "gamma_regularizer": null, "beta_constraint": null, "gamma_constraint": null}, "name": "block4b_bn", "inbound_nodes": [[["block4b_dwconv", 0, 0, {}]]]}, {"class_name": "Activation", "config": {"name": "block4b_activation", "trainable": true, "dtype": "float32", "activation": "swish"}, "name": "block4b_activation", "inbound_nodes": [[["block4b_bn", 0, 0, {}]]]}, {"class_name": "GlobalAveragePooling2D", "config": {"name": "block4b_se_squeeze", "trainable": true, "dtype": "float32", "data_format": "channels_last", "keepdims": false}, "name": "block4b_se_squeeze", "inbound_nodes": [[["block4b_activation", 0, 0, {}]]]}, {"class_name": "Reshape", "config": {"name": "block4b_se_reshape", "trainable": true, "dtype": "float32", "target_shape": [1, 1, 480]}, "name": "block4b_se_reshape", "inbound_nodes": [[["block4b_se_squeeze", 0, 0, {}]]]}, {"class_name": "Conv2D", "config": {"name": "block4b_se_reduce", "trainable": true, "dtype": "float32", "filters": 20, "kernel_size": [1, 1], "strides": [1, 1], "padding": "same", "data_format": "channels_last", "dilation_rate": [1, 1], "groups": 1, "activation": "swish", "use_bias": true, "kernel_initializer": {"module": "keras.initializers", "class_name": "VarianceScaling", "config": {"scale": 2.0, "mode": "fan_out", "distribution": "truncated_normal", "seed": null}, "registered_name": null}, "bias_initializer": {"module": "keras.initializers", "class_name": "Zeros", "config": {}, "registered_name": null}, "kernel_regularizer": null, "bias_regularizer": null, "activity_regularizer": null, "kernel_constraint": null, "bias_constraint": null}, "name": "block4b_se_reduce", "inbound_nodes": [[["block4b_se_reshape", 0, 0, {}]]]}, {"class_name": "Conv2D", "config": {"name": "block4b_se_expand", "trainable": true, "dtype": "float32", "filters": 480, "kernel_size": [1, 1], "strides": [1, 1], "padding": "same", "data_format": "channels_last", "dilation_rate": [1, 1], "groups": 1, "activation": "sigmoid", "use_bias": true, "kernel_initializer": {"module": "keras.initializers", "class_name": "VarianceScaling", "config": {"scale": 2.0, "mode": "fan_out", "distribution": "truncated_normal", "seed": null}, "registered_name": null}, "bias_initializer": {"module": "keras.initializers", "class_name": "Zeros", "config": {}, "registered_name": null}, "kernel_regularizer": null, "bias_regularizer": null, "activity_regularizer": null, "kernel_constraint": null, "bias_constraint": null}, "name": "block4b_se_expand", "inbound_nodes": [[["block4b_se_reduce", 0, 0, {}]]]}, {"class_name": "Multiply", "config": {"name": "block4b_se_excite", "trainable": true, "dtype": "float32"}, "name": "block4b_se_excite", "inbound_nodes": [[["block4b_activation", 0, 0, {}], ["block4b_se_expand", 0, 0, {}]]]}, {"class_name": "Conv2D", "config": {"name": "block4b_project_conv", "trainable": true, "dtype": "float32", "filters": 80, "kernel_size": [1, 1], "strides": [1, 1], "padding": "same", "data_format": "channels_last", "dilation_rate": [1, 1], "groups": 1, "activation": "linear", "use_bias": false, "kernel_initializer": {"module": "keras.initializers", "class_name": "VarianceScaling", "config": {"scale": 2.0, "mode": "fan_out", "distribution": "truncated_normal", "seed": null}, "registered_name": null}, "bias_initializer": {"module": "keras.initializers", "class_name": "Zeros", "config": {}, "registered_name": null}, "kernel_regularizer": null, "bias_regularizer": null, "activity_regularizer": null, "kernel_constraint": null, "bias_constraint": null}, "name": "block4b_project_conv", "inbound_nodes": [[["block4b_se_excite", 0, 0, {}]]]}, {"class_name": "BatchNormalization", "config": {"name": "block4b_project_bn", "trainable": true, "dtype": "float32", "axis": [3], "momentum": 0.99, "epsilon": 0.001, "center": true, "scale": true, "beta_initializer": {"module": "keras.initializers", "class_name": "Zeros", "config": {}, "registered_name": null}, "gamma_initializer": {"module": "keras.initializers", "class_name": "Ones", "config": {}, "registered_name": null}, "moving_mean_initializer": {"module": "keras.initializers", "class_name": "Zeros", "config": {}, "registered_name": null}, "moving_variance_initializer": {"module": "keras.initializers", "class_name": "Ones", "config": {}, "registered_name": null}, "beta_regularizer": null, "gamma_regularizer": null, "beta_constraint": null, "gamma_constraint": null}, "name": "block4b_project_bn", "inbound_nodes": [[["block4b_project_conv", 0, 0, {}]]]}, {"class_name": "Dropout", "config": {"name": "block4b_drop", "trainable": true, "dtype": "float32", "rate": 0.07500000000000001, "noise_shape": [null, 1, 1, 1], "seed": null}, "name": "block4b_drop", "inbound_nodes": [[["block4b_project_bn", 0, 0, {}]]]}, {"class_name": "Add", "config": {"name": "block4b_add", "trainable": true, "dtype": "float32"}, "name": "block4b_add", "inbound_nodes": [[["block4b_drop", 0, 0, {}], ["block4a_project_bn", 0, 0, {}]]]}, {"class_name": "Conv2D", "config": {"name": "block4c_expand_conv", "trainable": true, "dtype": "float32", "filters": 480, "kernel_size": [1, 1], "strides": [1, 1], "padding": "same", "data_format": "channels_last", "dilation_rate": [1, 1], "groups": 1, "activation": "linear", "use_bias": false, "kernel_initializer": {"module": "keras.initializers", "class_name": "VarianceScaling", "config": {"scale": 2.0, "mode": "fan_out", "distribution": "truncated_normal", "seed": null}, "registered_name": null}, "bias_initializer": {"module": "keras.initializers", "class_name": "Zeros", "config": {}, "registered_name": null}, "kernel_regularizer": null, "bias_regularizer": null, "activity_regularizer": null, "kernel_constraint": null, "bias_constraint": null}, "name": "block4c_expand_conv", "inbound_nodes": [[["block4b_add", 0, 0, {}]]]}, {"class_name": "BatchNormalization", "config": {"name": "block4c_expand_bn", "trainable": true, "dtype": "float32", "axis": [3], "momentum": 0.99, "epsilon": 0.001, "center": true, "scale": true, "beta_initializer": {"module": "keras.initializers", "class_name": "Zeros", "config": {}, "registered_name": null}, "gamma_initializer": {"module": "keras.initializers", "class_name": "Ones", "config": {}, "registered_name": null}, "moving_mean_initializer": {"module": "keras.initializers", "class_name": "Zeros", "config": {}, "registered_name": null}, "moving_variance_initializer": {"module": "keras.initializers", "class_name": "Ones", "config": {}, "registered_name": null}, "beta_regularizer": null, "gamma_regularizer": null, "beta_constraint": null, "gamma_constraint": null}, "name": "block4c_expand_bn", "inbound_nodes": [[["block4c_expand_conv", 0, 0, {}]]]}, {"class_name": "Activation", "config": {"name": "block4c_expand_activation", "trainable": true, "dtype": "float32", "activation": "swish"}, "name": "block4c_expand_activation", "inbound_nodes": [[["block4c_expand_bn", 0, 0, {}]]]}, {"class_name": "DepthwiseConv2D", "config": {"name": "block4c_dwconv", "trainable": true, "dtype": "float32", "kernel_size": [3, 3], "strides": [1, 1], "padding": "same", "data_format": "channels_last", "dilation_rate": [1, 1], "groups": 1, "activation": "linear", "use_bias": false, "bias_initializer": {"module": "keras.initializers", "class_name": "Zeros", "config": {}, "registered_name": null}, "bias_regularizer": null, "activity_regularizer": null, "bias_constraint": null, "depth_multiplier": 1, "depthwise_initializer": {"module": "keras.initializers", "class_name": "VarianceScaling", "config": {"scale": 2.0, "mode": "fan_out", "distribution": "truncated_normal", "seed": null}, "registered_name": null}, "depthwise_regularizer": null, "depthwise_constraint": null}, "name": "block4c_dwconv", "inbound_nodes": [[["block4c_expand_activation", 0, 0, {}]]]}, {"class_name": "BatchNormalization", "config": {"name": "block4c_bn", "trainable": true, "dtype": "float32", "axis": [3], "momentum": 0.99, "epsilon": 0.001, "center": true, "scale": true, "beta_initializer": {"module": "keras.initializers", "class_name": "Zeros", "config": {}, "registered_name": null}, "gamma_initializer": {"module": "keras.initializers", "class_name": "Ones", "config": {}, "registered_name": null}, "moving_mean_initializer": {"module": "keras.initializers", "class_name": "Zeros", "config": {}, "registered_name": null}, "moving_variance_initializer": {"module": "keras.initializers", "class_name": "Ones", "config": {}, "registered_name": null}, "beta_regularizer": null, "gamma_regularizer": null, "beta_constraint": null, "gamma_constraint": null}, "name": "block4c_bn", "inbound_nodes": [[["block4c_dwconv", 0, 0, {}]]]}, {"class_name": "Activation", "config": {"name": "block4c_activation", "trainable": true, "dtype": "float32", "activation": "swish"}, "name": "block4c_activation", "inbound_nodes": [[["block4c_bn", 0, 0, {}]]]}, {"class_name": "GlobalAveragePooling2D", "config": {"name": "block4c_se_squeeze", "trainable": true, "dtype": "float32", "data_format": "channels_last", "keepdims": false}, "name": "block4c_se_squeeze", "inbound_nodes": [[["block4c_activation", 0, 0, {}]]]}, {"class_name": "Reshape", "config": {"name": "block4c_se_reshape", "trainable": true, "dtype": "float32", "target_shape": [1, 1, 480]}, "name": "block4c_se_reshape", "inbound_nodes": [[["block4c_se_squeeze", 0, 0, {}]]]}, {"class_name": "Conv2D", "config": {"name": "block4c_se_reduce", "trainable": true, "dtype": "float32", "filters": 20, "kernel_size": [1, 1], "strides": [1, 1], "padding": "same", "data_format": "channels_last", "dilation_rate": [1, 1], "groups": 1, "activation": "swish", "use_bias": true, "kernel_initializer": {"module": "keras.initializers", "class_name": "VarianceScaling", "config": {"scale": 2.0, "mode": "fan_out", "distribution": "truncated_normal", "seed": null}, "registered_name": null}, "bias_initializer": {"module": "keras.initializers", "class_name": "Zeros", "config": {}, "registered_name": null}, "kernel_regularizer": null, "bias_regularizer": null, "activity_regularizer": null, "kernel_constraint": null, "bias_constraint": null}, "name": "block4c_se_reduce", "inbound_nodes": [[["block4c_se_reshape", 0, 0, {}]]]}, {"class_name": "Conv2D", "config": {"name": "block4c_se_expand", "trainable": true, "dtype": "float32", "filters": 480, "kernel_size": [1, 1], "strides": [1, 1], "padding": "same", "data_format": "channels_last", "dilation_rate": [1, 1], "groups": 1, "activation": "sigmoid", "use_bias": true, "kernel_initializer": {"module": "keras.initializers", "class_name": "VarianceScaling", "config": {"scale": 2.0, "mode": "fan_out", "distribution": "truncated_normal", "seed": null}, "registered_name": null}, "bias_initializer": {"module": "keras.initializers", "class_name": "Zeros", "config": {}, "registered_name": null}, "kernel_regularizer": null, "bias_regularizer": null, "activity_regularizer": null, "kernel_constraint": null, "bias_constraint": null}, "name": "block4c_se_expand", "inbound_nodes": [[["block4c_se_reduce", 0, 0, {}]]]}, {"class_name": "Multiply", "config": {"name": "block4c_se_excite", "trainable": true, "dtype": "float32"}, "name": "block4c_se_excite", "inbound_nodes": [[["block4c_activation", 0, 0, {}], ["block4c_se_expand", 0, 0, {}]]]}, {"class_name": "Conv2D", "config": {"name": "block4c_project_conv", "trainable": true, "dtype": "float32", "filters": 80, "kernel_size": [1, 1], "strides": [1, 1], "padding": "same", "data_format": "channels_last", "dilation_rate": [1, 1], "groups": 1, "activation": "linear", "use_bias": false, "kernel_initializer": {"module": "keras.initializers", "class_name": "VarianceScaling", "config": {"scale": 2.0, "mode": "fan_out", "distribution": "truncated_normal", "seed": null}, "registered_name": null}, "bias_initializer": {"module": "keras.initializers", "class_name": "Zeros", "config": {}, "registered_name": null}, "kernel_regularizer": null, "bias_regularizer": null, "activity_regularizer": null, "kernel_constraint": null, "bias_constraint": null}, "name": "block4c_project_conv", "inbound_nodes": [[["block4c_se_excite", 0, 0, {}]]]}, {"class_name": "BatchNormalization", "config": {"name": "block4c_project_bn", "trainable": true, "dtype": "float32", "axis": [3], "momentum": 0.99, "epsilon": 0.001, "center": true, "scale": true, "beta_initializer": {"module": "keras.initializers", "class_name": "Zeros", "config": {}, "registered_name": null}, "gamma_initializer": {"module": "keras.initializers", "class_name": "Ones", "config": {}, "registered_name": null}, "moving_mean_initializer": {"module": "keras.initializers", "class_name": "Zeros", "config": {}, "registered_name": null}, "moving_variance_initializer": {"module": "keras.initializers", "class_name": "Ones", "config": {}, "registered_name": null}, "beta_regularizer": null, "gamma_regularizer": null, "beta_constraint": null, "gamma_constraint": null}, "name": "block4c_project_bn", "inbound_nodes": [[["block4c_project_conv", 0, 0, {}]]]}, {"class_name": "Dropout", "config": {"name": "block4c_drop", "trainable": true, "dtype": "float32", "rate": 0.08750000000000001, "noise_shape": [null, 1, 1, 1], "seed": null}, "name": "block4c_drop", "inbound_nodes": [[["block4c_project_bn", 0, 0, {}]]]}, {"class_name": "Add", "config": {"name": "block4c_add", "trainable": true, "dtype": "float32"}, "name": "block4c_add", "inbound_nodes": [[["block4c_drop", 0, 0, {}], ["block4b_add", 0, 0, {}]]]}, {"class_name": "Conv2D", "config": {"name": "block5a_expand_conv", "trainable": true, "dtype": "float32", "filters": 480, "kernel_size": [1, 1], "strides": [1, 1], "padding": "same", "data_format": "channels_last", "dilation_rate": [1, 1], "groups": 1, "activation": "linear", "use_bias": false, "kernel_initializer": {"module": "keras.initializers", "class_name": "VarianceScaling", "config": {"scale": 2.0, "mode": "fan_out", "distribution": "truncated_normal", "seed": null}, "registered_name": null}, "bias_initializer": {"module": "keras.initializers", "class_name": "Zeros", "config": {}, "registered_name": null}, "kernel_regularizer": null, "bias_regularizer": null, "activity_regularizer": null, "kernel_constraint": null, "bias_constraint": null}, "name": "block5a_expand_conv", "inbound_nodes": [[["block4c_add", 0, 0, {}]]]}, {"class_name": "BatchNormalization", "config": {"name": "block5a_expand_bn", "trainable": true, "dtype": "float32", "axis": [3], "momentum": 0.99, "epsilon": 0.001, "center": true, "scale": true, "beta_initializer": {"module": "keras.initializers", "class_name": "Zeros", "config": {}, "registered_name": null}, "gamma_initializer": {"module": "keras.initializers", "class_name": "Ones", "config": {}, "registered_name": null}, "moving_mean_initializer": {"module": "keras.initializers", "class_name": "Zeros", "config": {}, "registered_name": null}, "moving_variance_initializer": {"module": "keras.initializers", "class_name": "Ones", "config": {}, "registered_name": null}, "beta_regularizer": null, "gamma_regularizer": null, "beta_constraint": null, "gamma_constraint": null}, "name": "block5a_expand_bn", "inbound_nodes": [[["block5a_expand_conv", 0, 0, {}]]]}, {"class_name": "Activation", "config": {"name": "block5a_expand_activation", "trainable": true, "dtype": "float32", "activation": "swish"}, "name": "block5a_expand_activation", "inbound_nodes": [[["block5a_expand_bn", 0, 0, {}]]]}, {"class_name": "DepthwiseConv2D", "config": {"name": "block5a_dwconv", "trainable": true, "dtype": "float32", "kernel_size": [5, 5], "strides": [1, 1], "padding": "same", "data_format": "channels_last", "dilation_rate": [1, 1], "groups": 1, "activation": "linear", "use_bias": false, "bias_initializer": {"module": "keras.initializers", "class_name": "Zeros", "config": {}, "registered_name": null}, "bias_regularizer": null, "activity_regularizer": null, "bias_constraint": null, "depth_multiplier": 1, "depthwise_initializer": {"module": "keras.initializers", "class_name": "VarianceScaling", "config": {"scale": 2.0, "mode": "fan_out", "distribution": "truncated_normal", "seed": null}, "registered_name": null}, "depthwise_regularizer": null, "depthwise_constraint": null}, "name": "block5a_dwconv", "inbound_nodes": [[["block5a_expand_activation", 0, 0, {}]]]}, {"class_name": "BatchNormalization", "config": {"name": "block5a_bn", "trainable": true, "dtype": "float32", "axis": [3], "momentum": 0.99, "epsilon": 0.001, "center": true, "scale": true, "beta_initializer": {"module": "keras.initializers", "class_name": "Zeros", "config": {}, "registered_name": null}, "gamma_initializer": {"module": "keras.initializers", "class_name": "Ones", "config": {}, "registered_name": null}, "moving_mean_initializer": {"module": "keras.initializers", "class_name": "Zeros", "config": {}, "registered_name": null}, "moving_variance_initializer": {"module": "keras.initializers", "class_name": "Ones", "config": {}, "registered_name": null}, "beta_regularizer": null, "gamma_regularizer": null, "beta_constraint": null, "gamma_constraint": null}, "name": "block5a_bn", "inbound_nodes": [[["block5a_dwconv", 0, 0, {}]]]}, {"class_name": "Activation", "config": {"name": "block5a_activation", "trainable": true, "dtype": "float32", "activation": "swish"}, "name": "block5a_activation", "inbound_nodes": [[["block5a_bn", 0, 0, {}]]]}, {"class_name": "GlobalAveragePooling2D", "config": {"name": "block5a_se_squeeze", "trainable": true, "dtype": "float32", "data_format": "channels_last", "keepdims": false}, "name": "block5a_se_squeeze", "inbound_nodes": [[["block5a_activation", 0, 0, {}]]]}, {"class_name": "Reshape", "config": {"name": "block5a_se_reshape", "trainable": true, "dtype": "float32", "target_shape": [1, 1, 480]}, "name": "block5a_se_reshape", "inbound_nodes": [[["block5a_se_squeeze", 0, 0, {}]]]}, {"class_name": "Conv2D", "config": {"name": "block5a_se_reduce", "trainable": true, "dtype": "float32", "filters": 20, "kernel_size": [1, 1], "strides": [1, 1], "padding": "same", "data_format": "channels_last", "dilation_rate": [1, 1], "groups": 1, "activation": "swish", "use_bias": true, "kernel_initializer": {"module": "keras.initializers", "class_name": "VarianceScaling", "config": {"scale": 2.0, "mode": "fan_out", "distribution": "truncated_normal", "seed": null}, "registered_name": null}, "bias_initializer": {"module": "keras.initializers", "class_name": "Zeros", "config": {}, "registered_name": null}, "kernel_regularizer": null, "bias_regularizer": null, "activity_regularizer": null, "kernel_constraint": null, "bias_constraint": null}, "name": "block5a_se_reduce", "inbound_nodes": [[["block5a_se_reshape", 0, 0, {}]]]}, {"class_name": "Conv2D", "config": {"name": "block5a_se_expand", "trainable": true, "dtype": "float32", "filters": 480, "kernel_size": [1, 1], "strides": [1, 1], "padding": "same", "data_format": "channels_last", "dilation_rate": [1, 1], "groups": 1, "activation": "sigmoid", "use_bias": true, "kernel_initializer": {"module": "keras.initializers", "class_name": "VarianceScaling", "config": {"scale": 2.0, "mode": "fan_out", "distribution": "truncated_normal", "seed": null}, "registered_name": null}, "bias_initializer": {"module": "keras.initializers", "class_name": "Zeros", "config": {}, "registered_name": null}, "kernel_regularizer": null, "bias_regularizer": null, "activity_regularizer": null, "kernel_constraint": null, "bias_constraint": null}, "name": "block5a_se_expand", "inbound_nodes": [[["block5a_se_reduce", 0, 0, {}]]]}, {"class_name": "Multiply", "config": {"name": "block5a_se_excite", "trainable": true, "dtype": "float32"}, "name": "block5a_se_excite", "inbound_nodes": [[["block5a_activation", 0, 0, {}], ["block5a_se_expand", 0, 0, {}]]]}, {"class_name": "Conv2D", "config": {"name": "block5a_project_conv", "trainable": true, "dtype": "float32", "filters": 112, "kernel_size": [1, 1], "strides": [1, 1], "padding": "same", "data_format": "channels_last", "dilation_rate": [1, 1], "groups": 1, "activation": "linear", "use_bias": false, "kernel_initializer": {"module": "keras.initializers", "class_name": "VarianceScaling", "config": {"scale": 2.0, "mode": "fan_out", "distribution": "truncated_normal", "seed": null}, "registered_name": null}, "bias_initializer": {"module": "keras.initializers", "class_name": "Zeros", "config": {}, "registered_name": null}, "kernel_regularizer": null, "bias_regularizer": null, "activity_regularizer": null, "kernel_constraint": null, "bias_constraint": null}, "name": "block5a_project_conv", "inbound_nodes": [[["block5a_se_excite", 0, 0, {}]]]}, {"class_name": "BatchNormalization", "config": {"name": "block5a_project_bn", "trainable": true, "dtype": "float32", "axis": [3], "momentum": 0.99, "epsilon": 0.001, "center": true, "scale": true, "beta_initializer": {"module": "keras.initializers", "class_name": "Zeros", "config": {}, "registered_name": null}, "gamma_initializer": {"module": "keras.initializers", "class_name": "Ones", "config": {}, "registered_name": null}, "moving_mean_initializer": {"module": "keras.initializers", "class_name": "Zeros", "config": {}, "registered_name": null}, "moving_variance_initializer": {"module": "keras.initializers", "class_name": "Ones", "config": {}, "registered_name": null}, "beta_regularizer": null, "gamma_regularizer": null, "beta_constraint": null, "gamma_constraint": null}, "name": "block5a_project_bn", "inbound_nodes": [[["block5a_project_conv", 0, 0, {}]]]}, {"class_name": "Conv2D", "config": {"name": "block5b_expand_conv", "trainable": true, "dtype": "float32", "filters": 672, "kernel_size": [1, 1], "strides": [1, 1], "padding": "same", "data_format": "channels_last", "dilation_rate": [1, 1], "groups": 1, "activation": "linear", "use_bias": false, "kernel_initializer": {"module": "keras.initializers", "class_name": "VarianceScaling", "config": {"scale": 2.0, "mode": "fan_out", "distribution": "truncated_normal", "seed": null}, "registered_name": null}, "bias_initializer": {"module": "keras.initializers", "class_name": "Zeros", "config": {}, "registered_name": null}, "kernel_regularizer": null, "bias_regularizer": null, "activity_regularizer": null, "kernel_constraint": null, "bias_constraint": null}, "name": "block5b_expand_conv", "inbound_nodes": [[["block5a_project_bn", 0, 0, {}]]]}, {"class_name": "BatchNormalization", "config": {"name": "block5b_expand_bn", "trainable": true, "dtype": "float32", "axis": [3], "momentum": 0.99, "epsilon": 0.001, "center": true, "scale": true, "beta_initializer": {"module": "keras.initializers", "class_name": "Zeros", "config": {}, "registered_name": null}, "gamma_initializer": {"module": "keras.initializers", "class_name": "Ones", "config": {}, "registered_name": null}, "moving_mean_initializer": {"module": "keras.initializers", "class_name": "Zeros", "config": {}, "registered_name": null}, "moving_variance_initializer": {"module": "keras.initializers", "class_name": "Ones", "config": {}, "registered_name": null}, "beta_regularizer": null, "gamma_regularizer": null, "beta_constraint": null, "gamma_constraint": null}, "name": "block5b_expand_bn", "inbound_nodes": [[["block5b_expand_conv", 0, 0, {}]]]}, {"class_name": "Activation", "config": {"name": "block5b_expand_activation", "trainable": true, "dtype": "float32", "activation": "swish"}, "name": "block5b_expand_activation", "inbound_nodes": [[["block5b_expand_bn", 0, 0, {}]]]}, {"class_name": "DepthwiseConv2D", "config": {"name": "block5b_dwconv", "trainable": true, "dtype": "float32", "kernel_size": [5, 5], "strides": [1, 1], "padding": "same", "data_format": "channels_last", "dilation_rate": [1, 1], "groups": 1, "activation": "linear", "use_bias": false, "bias_initializer": {"module": "keras.initializers", "class_name": "Zeros", "config": {}, "registered_name": null}, "bias_regularizer": null, "activity_regularizer": null, "bias_constraint": null, "depth_multiplier": 1, "depthwise_initializer": {"module": "keras.initializers", "class_name": "VarianceScaling", "config": {"scale": 2.0, "mode": "fan_out", "distribution": "truncated_normal", "seed": null}, "registered_name": null}, "depthwise_regularizer": null, "depthwise_constraint": null}, "name": "block5b_dwconv", "inbound_nodes": [[["block5b_expand_activation", 0, 0, {}]]]}, {"class_name": "BatchNormalization", "config": {"name": "block5b_bn", "trainable": true, "dtype": "float32", "axis": [3], "momentum": 0.99, "epsilon": 0.001, "center": true, "scale": true, "beta_initializer": {"module": "keras.initializers", "class_name": "Zeros", "config": {}, "registered_name": null}, "gamma_initializer": {"module": "keras.initializers", "class_name": "Ones", "config": {}, "registered_name": null}, "moving_mean_initializer": {"module": "keras.initializers", "class_name": "Zeros", "config": {}, "registered_name": null}, "moving_variance_initializer": {"module": "keras.initializers", "class_name": "Ones", "config": {}, "registered_name": null}, "beta_regularizer": null, "gamma_regularizer": null, "beta_constraint": null, "gamma_constraint": null}, "name": "block5b_bn", "inbound_nodes": [[["block5b_dwconv", 0, 0, {}]]]}, {"class_name": "Activation", "config": {"name": "block5b_activation", "trainable": true, "dtype": "float32", "activation": "swish"}, "name": "block5b_activation", "inbound_nodes": [[["block5b_bn", 0, 0, {}]]]}, {"class_name": "GlobalAveragePooling2D", "config": {"name": "block5b_se_squeeze", "trainable": true, "dtype": "float32", "data_format": "channels_last", "keepdims": false}, "name": "block5b_se_squeeze", "inbound_nodes": [[["block5b_activation", 0, 0, {}]]]}, {"class_name": "Reshape", "config": {"name": "block5b_se_reshape", "trainable": true, "dtype": "float32", "target_shape": [1, 1, 672]}, "name": "block5b_se_reshape", "inbound_nodes": [[["block5b_se_squeeze", 0, 0, {}]]]}, {"class_name": "Conv2D", "config": {"name": "block5b_se_reduce", "trainable": true, "dtype": "float32", "filters": 28, "kernel_size": [1, 1], "strides": [1, 1], "padding": "same", "data_format": "channels_last", "dilation_rate": [1, 1], "groups": 1, "activation": "swish", "use_bias": true, "kernel_initializer": {"module": "keras.initializers", "class_name": "VarianceScaling", "config": {"scale": 2.0, "mode": "fan_out", "distribution": "truncated_normal", "seed": null}, "registered_name": null}, "bias_initializer": {"module": "keras.initializers", "class_name": "Zeros", "config": {}, "registered_name": null}, "kernel_regularizer": null, "bias_regularizer": null, "activity_regularizer": null, "kernel_constraint": null, "bias_constraint": null}, "name": "block5b_se_reduce", "inbound_nodes": [[["block5b_se_reshape", 0, 0, {}]]]}, {"class_name": "Conv2D", "config": {"name": "block5b_se_expand", "trainable": true, "dtype": "float32", "filters": 672, "kernel_size": [1, 1], "strides": [1, 1], "padding": "same", "data_format": "channels_last", "dilation_rate": [1, 1], "groups": 1, "activation": "sigmoid", "use_bias": true, "kernel_initializer": {"module": "keras.initializers", "class_name": "VarianceScaling", "config": {"scale": 2.0, "mode": "fan_out", "distribution": "truncated_normal", "seed": null}, "registered_name": null}, "bias_initializer": {"module": "keras.initializers", "class_name": "Zeros", "config": {}, "registered_name": null}, "kernel_regularizer": null, "bias_regularizer": null, "activity_regularizer": null, "kernel_constraint": null, "bias_constraint": null}, "name": "block5b_se_expand", "inbound_nodes": [[["block5b_se_reduce", 0, 0, {}]]]}, {"class_name": "Multiply", "config": {"name": "block5b_se_excite", "trainable": true, "dtype": "float32"}, "name": "block5b_se_excite", "inbound_nodes": [[["block5b_activation", 0, 0, {}], ["block5b_se_expand", 0, 0, {}]]]}, {"class_name": "Conv2D", "config": {"name": "block5b_project_conv", "trainable": true, "dtype": "float32", "filters": 112, "kernel_size": [1, 1], "strides": [1, 1], "padding": "same", "data_format": "channels_last", "dilation_rate": [1, 1], "groups": 1, "activation": "linear", "use_bias": false, "kernel_initializer": {"module": "keras.initializers", "class_name": "VarianceScaling", "config": {"scale": 2.0, "mode": "fan_out", "distribution": "truncated_normal", "seed": null}, "registered_name": null}, "bias_initializer": {"module": "keras.initializers", "class_name": "Zeros", "config": {}, "registered_name": null}, "kernel_regularizer": null, "bias_regularizer": null, "activity_regularizer": null, "kernel_constraint": null, "bias_constraint": null}, "name": "block5b_project_conv", "inbound_nodes": [[["block5b_se_excite", 0, 0, {}]]]}, {"class_name": "BatchNormalization", "config": {"name": "block5b_project_bn", "trainable": true, "dtype": "float32", "axis": [3], "momentum": 0.99, "epsilon": 0.001, "center": true, "scale": true, "beta_initializer": {"module": "keras.initializers", "class_name": "Zeros", "config": {}, "registered_name": null}, "gamma_initializer": {"module": "keras.initializers", "class_name": "Ones", "config": {}, "registered_name": null}, "moving_mean_initializer": {"module": "keras.initializers", "class_name": "Zeros", "config": {}, "registered_name": null}, "moving_variance_initializer": {"module": "keras.initializers", "class_name": "Ones", "config": {}, "registered_name": null}, "beta_regularizer": null, "gamma_regularizer": null, "beta_constraint": null, "gamma_constraint": null}, "name": "block5b_project_bn", "inbound_nodes": [[["block5b_project_conv", 0, 0, {}]]]}, {"class_name": "Dropout", "config": {"name": "block5b_drop", "trainable": true, "dtype": "float32", "rate": 0.1125, "noise_shape": [null, 1, 1, 1], "seed": null}, "name": "block5b_drop", "inbound_nodes": [[["block5b_project_bn", 0, 0, {}]]]}, {"class_name": "Add", "config": {"name": "block5b_add", "trainable": true, "dtype": "float32"}, "name": "block5b_add", "inbound_nodes": [[["block5b_drop", 0, 0, {}], ["block5a_project_bn", 0, 0, {}]]]}, {"class_name": "Conv2D", "config": {"name": "block5c_expand_conv", "trainable": true, "dtype": "float32", "filters": 672, "kernel_size": [1, 1], "strides": [1, 1], "padding": "same", "data_format": "channels_last", "dilation_rate": [1, 1], "groups": 1, "activation": "linear", "use_bias": false, "kernel_initializer": {"module": "keras.initializers", "class_name": "VarianceScaling", "config": {"scale": 2.0, "mode": "fan_out", "distribution": "truncated_normal", "seed": null}, "registered_name": null}, "bias_initializer": {"module": "keras.initializers", "class_name": "Zeros", "config": {}, "registered_name": null}, "kernel_regularizer": null, "bias_regularizer": null, "activity_regularizer": null, "kernel_constraint": null, "bias_constraint": null}, "name": "block5c_expand_conv", "inbound_nodes": [[["block5b_add", 0, 0, {}]]]}, {"class_name": "BatchNormalization", "config": {"name": "block5c_expand_bn", "trainable": true, "dtype": "float32", "axis": [3], "momentum": 0.99, "epsilon": 0.001, "center": true, "scale": true, "beta_initializer": {"module": "keras.initializers", "class_name": "Zeros", "config": {}, "registered_name": null}, "gamma_initializer": {"module": "keras.initializers", "class_name": "Ones", "config": {}, "registered_name": null}, "moving_mean_initializer": {"module": "keras.initializers", "class_name": "Zeros", "config": {}, "registered_name": null}, "moving_variance_initializer": {"module": "keras.initializers", "class_name": "Ones", "config": {}, "registered_name": null}, "beta_regularizer": null, "gamma_regularizer": null, "beta_constraint": null, "gamma_constraint": null}, "name": "block5c_expand_bn", "inbound_nodes": [[["block5c_expand_conv", 0, 0, {}]]]}, {"class_name": "Activation", "config": {"name": "block5c_expand_activation", "trainable": true, "dtype": "float32", "activation": "swish"}, "name": "block5c_expand_activation", "inbound_nodes": [[["block5c_expand_bn", 0, 0, {}]]]}, {"class_name": "DepthwiseConv2D", "config": {"name": "block5c_dwconv", "trainable": true, "dtype": "float32", "kernel_size": [5, 5], "strides": [1, 1], "padding": "same", "data_format": "channels_last", "dilation_rate": [1, 1], "groups": 1, "activation": "linear", "use_bias": false, "bias_initializer": {"module": "keras.initializers", "class_name": "Zeros", "config": {}, "registered_name": null}, "bias_regularizer": null, "activity_regularizer": null, "bias_constraint": null, "depth_multiplier": 1, "depthwise_initializer": {"module": "keras.initializers", "class_name": "VarianceScaling", "config": {"scale": 2.0, "mode": "fan_out", "distribution": "truncated_normal", "seed": null}, "registered_name": null}, "depthwise_regularizer": null, "depthwise_constraint": null}, "name": "block5c_dwconv", "inbound_nodes": [[["block5c_expand_activation", 0, 0, {}]]]}, {"class_name": "BatchNormalization", "config": {"name": "block5c_bn", "trainable": true, "dtype": "float32", "axis": [3], "momentum": 0.99, "epsilon": 0.001, "center": true, "scale": true, "beta_initializer": {"module": "keras.initializers", "class_name": "Zeros", "config": {}, "registered_name": null}, "gamma_initializer": {"module": "keras.initializers", "class_name": "Ones", "config": {}, "registered_name": null}, "moving_mean_initializer": {"module": "keras.initializers", "class_name": "Zeros", "config": {}, "registered_name": null}, "moving_variance_initializer": {"module": "keras.initializers", "class_name": "Ones", "config": {}, "registered_name": null}, "beta_regularizer": null, "gamma_regularizer": null, "beta_constraint": null, "gamma_constraint": null}, "name": "block5c_bn", "inbound_nodes": [[["block5c_dwconv", 0, 0, {}]]]}, {"class_name": "Activation", "config": {"name": "block5c_activation", "trainable": true, "dtype": "float32", "activation": "swish"}, "name": "block5c_activation", "inbound_nodes": [[["block5c_bn", 0, 0, {}]]]}, {"class_name": "GlobalAveragePooling2D", "config": {"name": "block5c_se_squeeze", "trainable": true, "dtype": "float32", "data_format": "channels_last", "keepdims": false}, "name": "block5c_se_squeeze", "inbound_nodes": [[["block5c_activation", 0, 0, {}]]]}, {"class_name": "Reshape", "config": {"name": "block5c_se_reshape", "trainable": true, "dtype": "float32", "target_shape": [1, 1, 672]}, "name": "block5c_se_reshape", "inbound_nodes": [[["block5c_se_squeeze", 0, 0, {}]]]}, {"class_name": "Conv2D", "config": {"name": "block5c_se_reduce", "trainable": true, "dtype": "float32", "filters": 28, "kernel_size": [1, 1], "strides": [1, 1], "padding": "same", "data_format": "channels_last", "dilation_rate": [1, 1], "groups": 1, "activation": "swish", "use_bias": true, "kernel_initializer": {"module": "keras.initializers", "class_name": "VarianceScaling", "config": {"scale": 2.0, "mode": "fan_out", "distribution": "truncated_normal", "seed": null}, "registered_name": null}, "bias_initializer": {"module": "keras.initializers", "class_name": "Zeros", "config": {}, "registered_name": null}, "kernel_regularizer": null, "bias_regularizer": null, "activity_regularizer": null, "kernel_constraint": null, "bias_constraint": null}, "name": "block5c_se_reduce", "inbound_nodes": [[["block5c_se_reshape", 0, 0, {}]]]}, {"class_name": "Conv2D", "config": {"name": "block5c_se_expand", "trainable": true, "dtype": "float32", "filters": 672, "kernel_size": [1, 1], "strides": [1, 1], "padding": "same", "data_format": "channels_last", "dilation_rate": [1, 1], "groups": 1, "activation": "sigmoid", "use_bias": true, "kernel_initializer": {"module": "keras.initializers", "class_name": "VarianceScaling", "config": {"scale": 2.0, "mode": "fan_out", "distribution": "truncated_normal", "seed": null}, "registered_name": null}, "bias_initializer": {"module": "keras.initializers", "class_name": "Zeros", "config": {}, "registered_name": null}, "kernel_regularizer": null, "bias_regularizer": null, "activity_regularizer": null, "kernel_constraint": null, "bias_constraint": null}, "name": "block5c_se_expand", "inbound_nodes": [[["block5c_se_reduce", 0, 0, {}]]]}, {"class_name": "Multiply", "config": {"name": "block5c_se_excite", "trainable": true, "dtype": "float32"}, "name": "block5c_se_excite", "inbound_nodes": [[["block5c_activation", 0, 0, {}], ["block5c_se_expand", 0, 0, {}]]]}, {"class_name": "Conv2D", "config": {"name": "block5c_project_conv", "trainable": true, "dtype": "float32", "filters": 112, "kernel_size": [1, 1], "strides": [1, 1], "padding": "same", "data_format": "channels_last", "dilation_rate": [1, 1], "groups": 1, "activation": "linear", "use_bias": false, "kernel_initializer": {"module": "keras.initializers", "class_name": "VarianceScaling", "config": {"scale": 2.0, "mode": "fan_out", "distribution": "truncated_normal", "seed": null}, "registered_name": null}, "bias_initializer": {"module": "keras.initializers", "class_name": "Zeros", "config": {}, "registered_name": null}, "kernel_regularizer": null, "bias_regularizer": null, "activity_regularizer": null, "kernel_constraint": null, "bias_constraint": null}, "name": "block5c_project_conv", "inbound_nodes": [[["block5c_se_excite", 0, 0, {}]]]}, {"class_name": "BatchNormalization", "config": {"name": "block5c_project_bn", "trainable": true, "dtype": "float32", "axis": [3], "momentum": 0.99, "epsilon": 0.001, "center": true, "scale": true, "beta_initializer": {"module": "keras.initializers", "class_name": "Zeros", "config": {}, "registered_name": null}, "gamma_initializer": {"module": "keras.initializers", "class_name": "Ones", "config": {}, "registered_name": null}, "moving_mean_initializer": {"module": "keras.initializers", "class_name": "Zeros", "config": {}, "registered_name": null}, "moving_variance_initializer": {"module": "keras.initializers", "class_name": "Ones", "config": {}, "registered_name": null}, "beta_regularizer": null, "gamma_regularizer": null, "beta_constraint": null, "gamma_constraint": null}, "name": "block5c_project_bn", "inbound_nodes": [[["block5c_project_conv", 0, 0, {}]]]}, {"class_name": "Dropout", "config": {"name": "block5c_drop", "trainable": true, "dtype": "float32", "rate": 0.125, "noise_shape": [null, 1, 1, 1], "seed": null}, "name": "block5c_drop", "inbound_nodes": [[["block5c_project_bn", 0, 0, {}]]]}, {"class_name": "Add", "config": {"name": "block5c_add", "trainable": true, "dtype": "float32"}, "name": "block5c_add", "inbound_nodes": [[["block5c_drop", 0, 0, {}], ["block5b_add", 0, 0, {}]]]}, {"class_name": "Conv2D", "config": {"name": "block6a_expand_conv", "trainable": true, "dtype": "float32", "filters": 672, "kernel_size": [1, 1], "strides": [1, 1], "padding": "same", "data_format": "channels_last", "dilation_rate": [1, 1], "groups": 1, "activation": "linear", "use_bias": false, "kernel_initializer": {"module": "keras.initializers", "class_name": "VarianceScaling", "config": {"scale": 2.0, "mode": "fan_out", "distribution": "truncated_normal", "seed": null}, "registered_name": null}, "bias_initializer": {"module": "keras.initializers", "class_name": "Zeros", "config": {}, "registered_name": null}, "kernel_regularizer": null, "bias_regularizer": null, "activity_regularizer": null, "kernel_constraint": null, "bias_constraint": null}, "name": "block6a_expand_conv", "inbound_nodes": [[["block5c_add", 0, 0, {}]]]}, {"class_name": "BatchNormalization", "config": {"name": "block6a_expand_bn", "trainable": true, "dtype": "float32", "axis": [3], "momentum": 0.99, "epsilon": 0.001, "center": true, "scale": true, "beta_initializer": {"module": "keras.initializers", "class_name": "Zeros", "config": {}, "registered_name": null}, "gamma_initializer": {"module": "keras.initializers", "class_name": "Ones", "config": {}, "registered_name": null}, "moving_mean_initializer": {"module": "keras.initializers", "class_name": "Zeros", "config": {}, "registered_name": null}, "moving_variance_initializer": {"module": "keras.initializers", "class_name": "Ones", "config": {}, "registered_name": null}, "beta_regularizer": null, "gamma_regularizer": null, "beta_constraint": null, "gamma_constraint": null}, "name": "block6a_expand_bn", "inbound_nodes": [[["block6a_expand_conv", 0, 0, {}]]]}, {"class_name": "Activation", "config": {"name": "block6a_expand_activation", "trainable": true, "dtype": "float32", "activation": "swish"}, "name": "block6a_expand_activation", "inbound_nodes": [[["block6a_expand_bn", 0, 0, {}]]]}, {"class_name": "ZeroPadding2D", "config": {"name": "block6a_dwconv_pad", "trainable": true, "dtype": "float32", "padding": [[1, 2], [1, 2]], "data_format": "channels_last"}, "name": "block6a_dwconv_pad", "inbound_nodes": [[["block6a_expand_activation", 0, 0, {}]]]}, {"class_name": "DepthwiseConv2D", "config": {"name": "block6a_dwconv", "trainable": true, "dtype": "float32", "kernel_size": [5, 5], "strides": [2, 2], "padding": "valid", "data_format": "channels_last", "dilation_rate": [1, 1], "groups": 1, "activation": "linear", "use_bias": false, "bias_initializer": {"module": "keras.initializers", "class_name": "Zeros", "config": {}, "registered_name": null}, "bias_regularizer": null, "activity_regularizer": null, "bias_constraint": null, "depth_multiplier": 1, "depthwise_initializer": {"module": "keras.initializers", "class_name": "VarianceScaling", "config": {"scale": 2.0, "mode": "fan_out", "distribution": "truncated_normal", "seed": null}, "registered_name": null}, "depthwise_regularizer": null, "depthwise_constraint": null}, "name": "block6a_dwconv", "inbound_nodes": [[["block6a_dwconv_pad", 0, 0, {}]]]}, {"class_name": "BatchNormalization", "config": {"name": "block6a_bn", "trainable": true, "dtype": "float32", "axis": [3], "momentum": 0.99, "epsilon": 0.001, "center": true, "scale": true, "beta_initializer": {"module": "keras.initializers", "class_name": "Zeros", "config": {}, "registered_name": null}, "gamma_initializer": {"module": "keras.initializers", "class_name": "Ones", "config": {}, "registered_name": null}, "moving_mean_initializer": {"module": "keras.initializers", "class_name": "Zeros", "config": {}, "registered_name": null}, "moving_variance_initializer": {"module": "keras.initializers", "class_name": "Ones", "config": {}, "registered_name": null}, "beta_regularizer": null, "gamma_regularizer": null, "beta_constraint": null, "gamma_constraint": null}, "name": "block6a_bn", "inbound_nodes": [[["block6a_dwconv", 0, 0, {}]]]}, {"class_name": "Activation", "config": {"name": "block6a_activation", "trainable": true, "dtype": "float32", "activation": "swish"}, "name": "block6a_activation", "inbound_nodes": [[["block6a_bn", 0, 0, {}]]]}, {"class_name": "GlobalAveragePooling2D", "config": {"name": "block6a_se_squeeze", "trainable": true, "dtype": "float32", "data_format": "channels_last", "keepdims": false}, "name": "block6a_se_squeeze", "inbound_nodes": [[["block6a_activation", 0, 0, {}]]]}, {"class_name": "Reshape", "config": {"name": "block6a_se_reshape", "trainable": true, "dtype": "float32", "target_shape": [1, 1, 672]}, "name": "block6a_se_reshape", "inbound_nodes": [[["block6a_se_squeeze", 0, 0, {}]]]}, {"class_name": "Conv2D", "config": {"name": "block6a_se_reduce", "trainable": true, "dtype": "float32", "filters": 28, "kernel_size": [1, 1], "strides": [1, 1], "padding": "same", "data_format": "channels_last", "dilation_rate": [1, 1], "groups": 1, "activation": "swish", "use_bias": true, "kernel_initializer": {"module": "keras.initializers", "class_name": "VarianceScaling", "config": {"scale": 2.0, "mode": "fan_out", "distribution": "truncated_normal", "seed": null}, "registered_name": null}, "bias_initializer": {"module": "keras.initializers", "class_name": "Zeros", "config": {}, "registered_name": null}, "kernel_regularizer": null, "bias_regularizer": null, "activity_regularizer": null, "kernel_constraint": null, "bias_constraint": null}, "name": "block6a_se_reduce", "inbound_nodes": [[["block6a_se_reshape", 0, 0, {}]]]}, {"class_name": "Conv2D", "config": {"name": "block6a_se_expand", "trainable": true, "dtype": "float32", "filters": 672, "kernel_size": [1, 1], "strides": [1, 1], "padding": "same", "data_format": "channels_last", "dilation_rate": [1, 1], "groups": 1, "activation": "sigmoid", "use_bias": true, "kernel_initializer": {"module": "keras.initializers", "class_name": "VarianceScaling", "config": {"scale": 2.0, "mode": "fan_out", "distribution": "truncated_normal", "seed": null}, "registered_name": null}, "bias_initializer": {"module": "keras.initializers", "class_name": "Zeros", "config": {}, "registered_name": null}, "kernel_regularizer": null, "bias_regularizer": null, "activity_regularizer": null, "kernel_constraint": null, "bias_constraint": null}, "name": "block6a_se_expand", "inbound_nodes": [[["block6a_se_reduce", 0, 0, {}]]]}, {"class_name": "Multiply", "config": {"name": "block6a_se_excite", "trainable": true, "dtype": "float32"}, "name": "block6a_se_excite", "inbound_nodes": [[["block6a_activation", 0, 0, {}], ["block6a_se_expand", 0, 0, {}]]]}, {"class_name": "Conv2D", "config": {"name": "block6a_project_conv", "trainable": true, "dtype": "float32", "filters": 192, "kernel_size": [1, 1], "strides": [1, 1], "padding": "same", "data_format": "channels_last", "dilation_rate": [1, 1], "groups": 1, "activation": "linear", "use_bias": false, "kernel_initializer": {"module": "keras.initializers", "class_name": "VarianceScaling", "config": {"scale": 2.0, "mode": "fan_out", "distribution": "truncated_normal", "seed": null}, "registered_name": null}, "bias_initializer": {"module": "keras.initializers", "class_name": "Zeros", "config": {}, "registered_name": null}, "kernel_regularizer": null, "bias_regularizer": null, "activity_regularizer": null, "kernel_constraint": null, "bias_constraint": null}, "name": "block6a_project_conv", "inbound_nodes": [[["block6a_se_excite", 0, 0, {}]]]}, {"class_name": "BatchNormalization", "config": {"name": "block6a_project_bn", "trainable": true, "dtype": "float32", "axis": [3], "momentum": 0.99, "epsilon": 0.001, "center": true, "scale": true, "beta_initializer": {"module": "keras.initializers", "class_name": "Zeros", "config": {}, "registered_name": null}, "gamma_initializer": {"module": "keras.initializers", "class_name": "Ones", "config": {}, "registered_name": null}, "moving_mean_initializer": {"module": "keras.initializers", "class_name": "Zeros", "config": {}, "registered_name": null}, "moving_variance_initializer": {"module": "keras.initializers", "class_name": "Ones", "config": {}, "registered_name": null}, "beta_regularizer": null, "gamma_regularizer": null, "beta_constraint": null, "gamma_constraint": null}, "name": "block6a_project_bn", "inbound_nodes": [[["block6a_project_conv", 0, 0, {}]]]}, {"class_name": "Conv2D", "config": {"name": "block6b_expand_conv", "trainable": true, "dtype": "float32", "filters": 1152, "kernel_size": [1, 1], "strides": [1, 1], "padding": "same", "data_format": "channels_last", "dilation_rate": [1, 1], "groups": 1, "activation": "linear", "use_bias": false, "kernel_initializer": {"module": "keras.initializers", "class_name": "VarianceScaling", "config": {"scale": 2.0, "mode": "fan_out", "distribution": "truncated_normal", "seed": null}, "registered_name": null}, "bias_initializer": {"module": "keras.initializers", "class_name": "Zeros", "config": {}, "registered_name": null}, "kernel_regularizer": null, "bias_regularizer": null, "activity_regularizer": null, "kernel_constraint": null, "bias_constraint": null}, "name": "block6b_expand_conv", "inbound_nodes": [[["block6a_project_bn", 0, 0, {}]]]}, {"class_name": "BatchNormalization", "config": {"name": "block6b_expand_bn", "trainable": true, "dtype": "float32", "axis": [3], "momentum": 0.99, "epsilon": 0.001, "center": true, "scale": true, "beta_initializer": {"module": "keras.initializers", "class_name": "Zeros", "config": {}, "registered_name": null}, "gamma_initializer": {"module": "keras.initializers", "class_name": "Ones", "config": {}, "registered_name": null}, "moving_mean_initializer": {"module": "keras.initializers", "class_name": "Zeros", "config": {}, "registered_name": null}, "moving_variance_initializer": {"module": "keras.initializers", "class_name": "Ones", "config": {}, "registered_name": null}, "beta_regularizer": null, "gamma_regularizer": null, "beta_constraint": null, "gamma_constraint": null}, "name": "block6b_expand_bn", "inbound_nodes": [[["block6b_expand_conv", 0, 0, {}]]]}, {"class_name": "Activation", "config": {"name": "block6b_expand_activation", "trainable": true, "dtype": "float32", "activation": "swish"}, "name": "block6b_expand_activation", "inbound_nodes": [[["block6b_expand_bn", 0, 0, {}]]]}, {"class_name": "DepthwiseConv2D", "config": {"name": "block6b_dwconv", "trainable": true, "dtype": "float32", "kernel_size": [5, 5], "strides": [1, 1], "padding": "same", "data_format": "channels_last", "dilation_rate": [1, 1], "groups": 1, "activation": "linear", "use_bias": false, "bias_initializer": {"module": "keras.initializers", "class_name": "Zeros", "config": {}, "registered_name": null}, "bias_regularizer": null, "activity_regularizer": null, "bias_constraint": null, "depth_multiplier": 1, "depthwise_initializer": {"module": "keras.initializers", "class_name": "VarianceScaling", "config": {"scale": 2.0, "mode": "fan_out", "distribution": "truncated_normal", "seed": null}, "registered_name": null}, "depthwise_regularizer": null, "depthwise_constraint": null}, "name": "block6b_dwconv", "inbound_nodes": [[["block6b_expand_activation", 0, 0, {}]]]}, {"class_name": "BatchNormalization", "config": {"name": "block6b_bn", "trainable": true, "dtype": "float32", "axis": [3], "momentum": 0.99, "epsilon": 0.001, "center": true, "scale": true, "beta_initializer": {"module": "keras.initializers", "class_name": "Zeros", "config": {}, "registered_name": null}, "gamma_initializer": {"module": "keras.initializers", "class_name": "Ones", "config": {}, "registered_name": null}, "moving_mean_initializer": {"module": "keras.initializers", "class_name": "Zeros", "config": {}, "registered_name": null}, "moving_variance_initializer": {"module": "keras.initializers", "class_name": "Ones", "config": {}, "registered_name": null}, "beta_regularizer": null, "gamma_regularizer": null, "beta_constraint": null, "gamma_constraint": null}, "name": "block6b_bn", "inbound_nodes": [[["block6b_dwconv", 0, 0, {}]]]}, {"class_name": "Activation", "config": {"name": "block6b_activation", "trainable": true, "dtype": "float32", "activation": "swish"}, "name": "block6b_activation", "inbound_nodes": [[["block6b_bn", 0, 0, {}]]]}, {"class_name": "GlobalAveragePooling2D", "config": {"name": "block6b_se_squeeze", "trainable": true, "dtype": "float32", "data_format": "channels_last", "keepdims": false}, "name": "block6b_se_squeeze", "inbound_nodes": [[["block6b_activation", 0, 0, {}]]]}, {"class_name": "Reshape", "config": {"name": "block6b_se_reshape", "trainable": true, "dtype": "float32", "target_shape": [1, 1, 1152]}, "name": "block6b_se_reshape", "inbound_nodes": [[["block6b_se_squeeze", 0, 0, {}]]]}, {"class_name": "Conv2D", "config": {"name": "block6b_se_reduce", "trainable": true, "dtype": "float32", "filters": 48, "kernel_size": [1, 1], "strides": [1, 1], "padding": "same", "data_format": "channels_last", "dilation_rate": [1, 1], "groups": 1, "activation": "swish", "use_bias": true, "kernel_initializer": {"module": "keras.initializers", "class_name": "VarianceScaling", "config": {"scale": 2.0, "mode": "fan_out", "distribution": "truncated_normal", "seed": null}, "registered_name": null}, "bias_initializer": {"module": "keras.initializers", "class_name": "Zeros", "config": {}, "registered_name": null}, "kernel_regularizer": null, "bias_regularizer": null, "activity_regularizer": null, "kernel_constraint": null, "bias_constraint": null}, "name": "block6b_se_reduce", "inbound_nodes": [[["block6b_se_reshape", 0, 0, {}]]]}, {"class_name": "Conv2D", "config": {"name": "block6b_se_expand", "trainable": true, "dtype": "float32", "filters": 1152, "kernel_size": [1, 1], "strides": [1, 1], "padding": "same", "data_format": "channels_last", "dilation_rate": [1, 1], "groups": 1, "activation": "sigmoid", "use_bias": true, "kernel_initializer": {"module": "keras.initializers", "class_name": "VarianceScaling", "config": {"scale": 2.0, "mode": "fan_out", "distribution": "truncated_normal", "seed": null}, "registered_name": null}, "bias_initializer": {"module": "keras.initializers", "class_name": "Zeros", "config": {}, "registered_name": null}, "kernel_regularizer": null, "bias_regularizer": null, "activity_regularizer": null, "kernel_constraint": null, "bias_constraint": null}, "name": "block6b_se_expand", "inbound_nodes": [[["block6b_se_reduce", 0, 0, {}]]]}, {"class_name": "Multiply", "config": {"name": "block6b_se_excite", "trainable": true, "dtype": "float32"}, "name": "block6b_se_excite", "inbound_nodes": [[["block6b_activation", 0, 0, {}], ["block6b_se_expand", 0, 0, {}]]]}, {"class_name": "Conv2D", "config": {"name": "block6b_project_conv", "trainable": true, "dtype": "float32", "filters": 192, "kernel_size": [1, 1], "strides": [1, 1], "padding": "same", "data_format": "channels_last", "dilation_rate": [1, 1], "groups": 1, "activation": "linear", "use_bias": false, "kernel_initializer": {"module": "keras.initializers", "class_name": "VarianceScaling", "config": {"scale": 2.0, "mode": "fan_out", "distribution": "truncated_normal", "seed": null}, "registered_name": null}, "bias_initializer": {"module": "keras.initializers", "class_name": "Zeros", "config": {}, "registered_name": null}, "kernel_regularizer": null, "bias_regularizer": null, "activity_regularizer": null, "kernel_constraint": null, "bias_constraint": null}, "name": "block6b_project_conv", "inbound_nodes": [[["block6b_se_excite", 0, 0, {}]]]}, {"class_name": "BatchNormalization", "config": {"name": "block6b_project_bn", "trainable": true, "dtype": "float32", "axis": [3], "momentum": 0.99, "epsilon": 0.001, "center": true, "scale": true, "beta_initializer": {"module": "keras.initializers", "class_name": "Zeros", "config": {}, "registered_name": null}, "gamma_initializer": {"module": "keras.initializers", "class_name": "Ones", "config": {}, "registered_name": null}, "moving_mean_initializer": {"module": "keras.initializers", "class_name": "Zeros", "config": {}, "registered_name": null}, "moving_variance_initializer": {"module": "keras.initializers", "class_name": "Ones", "config": {}, "registered_name": null}, "beta_regularizer": null, "gamma_regularizer": null, "beta_constraint": null, "gamma_constraint": null}, "name": "block6b_project_bn", "inbound_nodes": [[["block6b_project_conv", 0, 0, {}]]]}, {"class_name": "Dropout", "config": {"name": "block6b_drop", "trainable": true, "dtype": "float32", "rate": 0.15000000000000002, "noise_shape": [null, 1, 1, 1], "seed": null}, "name": "block6b_drop", "inbound_nodes": [[["block6b_project_bn", 0, 0, {}]]]}, {"class_name": "Add", "config": {"name": "block6b_add", "trainable": true, "dtype": "float32"}, "name": "block6b_add", "inbound_nodes": [[["block6b_drop", 0, 0, {}], ["block6a_project_bn", 0, 0, {}]]]}, {"class_name": "Conv2D", "config": {"name": "block6c_expand_conv", "trainable": true, "dtype": "float32", "filters": 1152, "kernel_size": [1, 1], "strides": [1, 1], "padding": "same", "data_format": "channels_last", "dilation_rate": [1, 1], "groups": 1, "activation": "linear", "use_bias": false, "kernel_initializer": {"module": "keras.initializers", "class_name": "VarianceScaling", "config": {"scale": 2.0, "mode": "fan_out", "distribution": "truncated_normal", "seed": null}, "registered_name": null}, "bias_initializer": {"module": "keras.initializers", "class_name": "Zeros", "config": {}, "registered_name": null}, "kernel_regularizer": null, "bias_regularizer": null, "activity_regularizer": null, "kernel_constraint": null, "bias_constraint": null}, "name": "block6c_expand_conv", "inbound_nodes": [[["block6b_add", 0, 0, {}]]]}, {"class_name": "BatchNormalization", "config": {"name": "block6c_expand_bn", "trainable": true, "dtype": "float32", "axis": [3], "momentum": 0.99, "epsilon": 0.001, "center": true, "scale": true, "beta_initializer": {"module": "keras.initializers", "class_name": "Zeros", "config": {}, "registered_name": null}, "gamma_initializer": {"module": "keras.initializers", "class_name": "Ones", "config": {}, "registered_name": null}, "moving_mean_initializer": {"module": "keras.initializers", "class_name": "Zeros", "config": {}, "registered_name": null}, "moving_variance_initializer": {"module": "keras.initializers", "class_name": "Ones", "config": {}, "registered_name": null}, "beta_regularizer": null, "gamma_regularizer": null, "beta_constraint": null, "gamma_constraint": null}, "name": "block6c_expand_bn", "inbound_nodes": [[["block6c_expand_conv", 0, 0, {}]]]}, {"class_name": "Activation", "config": {"name": "block6c_expand_activation", "trainable": true, "dtype": "float32", "activation": "swish"}, "name": "block6c_expand_activation", "inbound_nodes": [[["block6c_expand_bn", 0, 0, {}]]]}, {"class_name": "DepthwiseConv2D", "config": {"name": "block6c_dwconv", "trainable": true, "dtype": "float32", "kernel_size": [5, 5], "strides": [1, 1], "padding": "same", "data_format": "channels_last", "dilation_rate": [1, 1], "groups": 1, "activation": "linear", "use_bias": false, "bias_initializer": {"module": "keras.initializers", "class_name": "Zeros", "config": {}, "registered_name": null}, "bias_regularizer": null, "activity_regularizer": null, "bias_constraint": null, "depth_multiplier": 1, "depthwise_initializer": {"module": "keras.initializers", "class_name": "VarianceScaling", "config": {"scale": 2.0, "mode": "fan_out", "distribution": "truncated_normal", "seed": null}, "registered_name": null}, "depthwise_regularizer": null, "depthwise_constraint": null}, "name": "block6c_dwconv", "inbound_nodes": [[["block6c_expand_activation", 0, 0, {}]]]}, {"class_name": "BatchNormalization", "config": {"name": "block6c_bn", "trainable": true, "dtype": "float32", "axis": [3], "momentum": 0.99, "epsilon": 0.001, "center": true, "scale": true, "beta_initializer": {"module": "keras.initializers", "class_name": "Zeros", "config": {}, "registered_name": null}, "gamma_initializer": {"module": "keras.initializers", "class_name": "Ones", "config": {}, "registered_name": null}, "moving_mean_initializer": {"module": "keras.initializers", "class_name": "Zeros", "config": {}, "registered_name": null}, "moving_variance_initializer": {"module": "keras.initializers", "class_name": "Ones", "config": {}, "registered_name": null}, "beta_regularizer": null, "gamma_regularizer": null, "beta_constraint": null, "gamma_constraint": null}, "name": "block6c_bn", "inbound_nodes": [[["block6c_dwconv", 0, 0, {}]]]}, {"class_name": "Activation", "config": {"name": "block6c_activation", "trainable": true, "dtype": "float32", "activation": "swish"}, "name": "block6c_activation", "inbound_nodes": [[["block6c_bn", 0, 0, {}]]]}, {"class_name": "GlobalAveragePooling2D", "config": {"name": "block6c_se_squeeze", "trainable": true, "dtype": "float32", "data_format": "channels_last", "keepdims": false}, "name": "block6c_se_squeeze", "inbound_nodes": [[["block6c_activation", 0, 0, {}]]]}, {"class_name": "Reshape", "config": {"name": "block6c_se_reshape", "trainable": true, "dtype": "float32", "target_shape": [1, 1, 1152]}, "name": "block6c_se_reshape", "inbound_nodes": [[["block6c_se_squeeze", 0, 0, {}]]]}, {"class_name": "Conv2D", "config": {"name": "block6c_se_reduce", "trainable": true, "dtype": "float32", "filters": 48, "kernel_size": [1, 1], "strides": [1, 1], "padding": "same", "data_format": "channels_last", "dilation_rate": [1, 1], "groups": 1, "activation": "swish", "use_bias": true, "kernel_initializer": {"module": "keras.initializers", "class_name": "VarianceScaling", "config": {"scale": 2.0, "mode": "fan_out", "distribution": "truncated_normal", "seed": null}, "registered_name": null}, "bias_initializer": {"module": "keras.initializers", "class_name": "Zeros", "config": {}, "registered_name": null}, "kernel_regularizer": null, "bias_regularizer": null, "activity_regularizer": null, "kernel_constraint": null, "bias_constraint": null}, "name": "block6c_se_reduce", "inbound_nodes": [[["block6c_se_reshape", 0, 0, {}]]]}, {"class_name": "Conv2D", "config": {"name": "block6c_se_expand", "trainable": true, "dtype": "float32", "filters": 1152, "kernel_size": [1, 1], "strides": [1, 1], "padding": "same", "data_format": "channels_last", "dilation_rate": [1, 1], "groups": 1, "activation": "sigmoid", "use_bias": true, "kernel_initializer": {"module": "keras.initializers", "class_name": "VarianceScaling", "config": {"scale": 2.0, "mode": "fan_out", "distribution": "truncated_normal", "seed": null}, "registered_name": null}, "bias_initializer": {"module": "keras.initializers", "class_name": "Zeros", "config": {}, "registered_name": null}, "kernel_regularizer": null, "bias_regularizer": null, "activity_regularizer": null, "kernel_constraint": null, "bias_constraint": null}, "name": "block6c_se_expand", "inbound_nodes": [[["block6c_se_reduce", 0, 0, {}]]]}, {"class_name": "Multiply", "config": {"name": "block6c_se_excite", "trainable": true, "dtype": "float32"}, "name": "block6c_se_excite", "inbound_nodes": [[["block6c_activation", 0, 0, {}], ["block6c_se_expand", 0, 0, {}]]]}, {"class_name": "Conv2D", "config": {"name": "block6c_project_conv", "trainable": true, "dtype": "float32", "filters": 192, "kernel_size": [1, 1], "strides": [1, 1], "padding": "same", "data_format": "channels_last", "dilation_rate": [1, 1], "groups": 1, "activation": "linear", "use_bias": false, "kernel_initializer": {"module": "keras.initializers", "class_name": "VarianceScaling", "config": {"scale": 2.0, "mode": "fan_out", "distribution": "truncated_normal", "seed": null}, "registered_name": null}, "bias_initializer": {"module": "keras.initializers", "class_name": "Zeros", "config": {}, "registered_name": null}, "kernel_regularizer": null, "bias_regularizer": null, "activity_regularizer": null, "kernel_constraint": null, "bias_constraint": null}, "name": "block6c_project_conv", "inbound_nodes": [[["block6c_se_excite", 0, 0, {}]]]}, {"class_name": "BatchNormalization", "config": {"name": "block6c_project_bn", "trainable": true, "dtype": "float32", "axis": [3], "momentum": 0.99, "epsilon": 0.001, "center": true, "scale": true, "beta_initializer": {"module": "keras.initializers", "class_name": "Zeros", "config": {}, "registered_name": null}, "gamma_initializer": {"module": "keras.initializers", "class_name": "Ones", "config": {}, "registered_name": null}, "moving_mean_initializer": {"module": "keras.initializers", "class_name": "Zeros", "config": {}, "registered_name": null}, "moving_variance_initializer": {"module": "keras.initializers", "class_name": "Ones", "config": {}, "registered_name": null}, "beta_regularizer": null, "gamma_regularizer": null, "beta_constraint": null, "gamma_constraint": null}, "name": "block6c_project_bn", "inbound_nodes": [[["block6c_project_conv", 0, 0, {}]]]}, {"class_name": "Dropout", "config": {"name": "block6c_drop", "trainable": true, "dtype": "float32", "rate": 0.1625, "noise_shape": [null, 1, 1, 1], "seed": null}, "name": "block6c_drop", "inbound_nodes": [[["block6c_project_bn", 0, 0, {}]]]}, {"class_name": "Add", "config": {"name": "block6c_add", "trainable": true, "dtype": "float32"}, "name": "block6c_add", "inbound_nodes": [[["block6c_drop", 0, 0, {}], ["block6b_add", 0, 0, {}]]]}, {"class_name": "Conv2D", "config": {"name": "block6d_expand_conv", "trainable": true, "dtype": "float32", "filters": 1152, "kernel_size": [1, 1], "strides": [1, 1], "padding": "same", "data_format": "channels_last", "dilation_rate": [1, 1], "groups": 1, "activation": "linear", "use_bias": false, "kernel_initializer": {"module": "keras.initializers", "class_name": "VarianceScaling", "config": {"scale": 2.0, "mode": "fan_out", "distribution": "truncated_normal", "seed": null}, "registered_name": null}, "bias_initializer": {"module": "keras.initializers", "class_name": "Zeros", "config": {}, "registered_name": null}, "kernel_regularizer": null, "bias_regularizer": null, "activity_regularizer": null, "kernel_constraint": null, "bias_constraint": null}, "name": "block6d_expand_conv", "inbound_nodes": [[["block6c_add", 0, 0, {}]]]}, {"class_name": "BatchNormalization", "config": {"name": "block6d_expand_bn", "trainable": true, "dtype": "float32", "axis": [3], "momentum": 0.99, "epsilon": 0.001, "center": true, "scale": true, "beta_initializer": {"module": "keras.initializers", "class_name": "Zeros", "config": {}, "registered_name": null}, "gamma_initializer": {"module": "keras.initializers", "class_name": "Ones", "config": {}, "registered_name": null}, "moving_mean_initializer": {"module": "keras.initializers", "class_name": "Zeros", "config": {}, "registered_name": null}, "moving_variance_initializer": {"module": "keras.initializers", "class_name": "Ones", "config": {}, "registered_name": null}, "beta_regularizer": null, "gamma_regularizer": null, "beta_constraint": null, "gamma_constraint": null}, "name": "block6d_expand_bn", "inbound_nodes": [[["block6d_expand_conv", 0, 0, {}]]]}, {"class_name": "Activation", "config": {"name": "block6d_expand_activation", "trainable": true, "dtype": "float32", "activation": "swish"}, "name": "block6d_expand_activation", "inbound_nodes": [[["block6d_expand_bn", 0, 0, {}]]]}, {"class_name": "DepthwiseConv2D", "config": {"name": "block6d_dwconv", "trainable": true, "dtype": "float32", "kernel_size": [5, 5], "strides": [1, 1], "padding": "same", "data_format": "channels_last", "dilation_rate": [1, 1], "groups": 1, "activation": "linear", "use_bias": false, "bias_initializer": {"module": "keras.initializers", "class_name": "Zeros", "config": {}, "registered_name": null}, "bias_regularizer": null, "activity_regularizer": null, "bias_constraint": null, "depth_multiplier": 1, "depthwise_initializer": {"module": "keras.initializers", "class_name": "VarianceScaling", "config": {"scale": 2.0, "mode": "fan_out", "distribution": "truncated_normal", "seed": null}, "registered_name": null}, "depthwise_regularizer": null, "depthwise_constraint": null}, "name": "block6d_dwconv", "inbound_nodes": [[["block6d_expand_activation", 0, 0, {}]]]}, {"class_name": "BatchNormalization", "config": {"name": "block6d_bn", "trainable": true, "dtype": "float32", "axis": [3], "momentum": 0.99, "epsilon": 0.001, "center": true, "scale": true, "beta_initializer": {"module": "keras.initializers", "class_name": "Zeros", "config": {}, "registered_name": null}, "gamma_initializer": {"module": "keras.initializers", "class_name": "Ones", "config": {}, "registered_name": null}, "moving_mean_initializer": {"module": "keras.initializers", "class_name": "Zeros", "config": {}, "registered_name": null}, "moving_variance_initializer": {"module": "keras.initializers", "class_name": "Ones", "config": {}, "registered_name": null}, "beta_regularizer": null, "gamma_regularizer": null, "beta_constraint": null, "gamma_constraint": null}, "name": "block6d_bn", "inbound_nodes": [[["block6d_dwconv", 0, 0, {}]]]}, {"class_name": "Activation", "config": {"name": "block6d_activation", "trainable": true, "dtype": "float32", "activation": "swish"}, "name": "block6d_activation", "inbound_nodes": [[["block6d_bn", 0, 0, {}]]]}, {"class_name": "GlobalAveragePooling2D", "config": {"name": "block6d_se_squeeze", "trainable": true, "dtype": "float32", "data_format": "channels_last", "keepdims": false}, "name": "block6d_se_squeeze", "inbound_nodes": [[["block6d_activation", 0, 0, {}]]]}, {"class_name": "Reshape", "config": {"name": "block6d_se_reshape", "trainable": true, "dtype": "float32", "target_shape": [1, 1, 1152]}, "name": "block6d_se_reshape", "inbound_nodes": [[["block6d_se_squeeze", 0, 0, {}]]]}, {"class_name": "Conv2D", "config": {"name": "block6d_se_reduce", "trainable": true, "dtype": "float32", "filters": 48, "kernel_size": [1, 1], "strides": [1, 1], "padding": "same", "data_format": "channels_last", "dilation_rate": [1, 1], "groups": 1, "activation": "swish", "use_bias": true, "kernel_initializer": {"module": "keras.initializers", "class_name": "VarianceScaling", "config": {"scale": 2.0, "mode": "fan_out", "distribution": "truncated_normal", "seed": null}, "registered_name": null}, "bias_initializer": {"module": "keras.initializers", "class_name": "Zeros", "config": {}, "registered_name": null}, "kernel_regularizer": null, "bias_regularizer": null, "activity_regularizer": null, "kernel_constraint": null, "bias_constraint": null}, "name": "block6d_se_reduce", "inbound_nodes": [[["block6d_se_reshape", 0, 0, {}]]]}, {"class_name": "Conv2D", "config": {"name": "block6d_se_expand", "trainable": true, "dtype": "float32", "filters": 1152, "kernel_size": [1, 1], "strides": [1, 1], "padding": "same", "data_format": "channels_last", "dilation_rate": [1, 1], "groups": 1, "activation": "sigmoid", "use_bias": true, "kernel_initializer": {"module": "keras.initializers", "class_name": "VarianceScaling", "config": {"scale": 2.0, "mode": "fan_out", "distribution": "truncated_normal", "seed": null}, "registered_name": null}, "bias_initializer": {"module": "keras.initializers", "class_name": "Zeros", "config": {}, "registered_name": null}, "kernel_regularizer": null, "bias_regularizer": null, "activity_regularizer": null, "kernel_constraint": null, "bias_constraint": null}, "name": "block6d_se_expand", "inbound_nodes": [[["block6d_se_reduce", 0, 0, {}]]]}, {"class_name": "Multiply", "config": {"name": "block6d_se_excite", "trainable": true, "dtype": "float32"}, "name": "block6d_se_excite", "inbound_nodes": [[["block6d_activation", 0, 0, {}], ["block6d_se_expand", 0, 0, {}]]]}, {"class_name": "Conv2D", "config": {"name": "block6d_project_conv", "trainable": true, "dtype": "float32", "filters": 192, "kernel_size": [1, 1], "strides": [1, 1], "padding": "same", "data_format": "channels_last", "dilation_rate": [1, 1], "groups": 1, "activation": "linear", "use_bias": false, "kernel_initializer": {"module": "keras.initializers", "class_name": "VarianceScaling", "config": {"scale": 2.0, "mode": "fan_out", "distribution": "truncated_normal", "seed": null}, "registered_name": null}, "bias_initializer": {"module": "keras.initializers", "class_name": "Zeros", "config": {}, "registered_name": null}, "kernel_regularizer": null, "bias_regularizer": null, "activity_regularizer": null, "kernel_constraint": null, "bias_constraint": null}, "name": "block6d_project_conv", "inbound_nodes": [[["block6d_se_excite", 0, 0, {}]]]}, {"class_name": "BatchNormalization", "config": {"name": "block6d_project_bn", "trainable": true, "dtype": "float32", "axis": [3], "momentum": 0.99, "epsilon": 0.001, "center": true, "scale": true, "beta_initializer": {"module": "keras.initializers", "class_name": "Zeros", "config": {}, "registered_name": null}, "gamma_initializer": {"module": "keras.initializers", "class_name": "Ones", "config": {}, "registered_name": null}, "moving_mean_initializer": {"module": "keras.initializers", "class_name": "Zeros", "config": {}, "registered_name": null}, "moving_variance_initializer": {"module": "keras.initializers", "class_name": "Ones", "config": {}, "registered_name": null}, "beta_regularizer": null, "gamma_regularizer": null, "beta_constraint": null, "gamma_constraint": null}, "name": "block6d_project_bn", "inbound_nodes": [[["block6d_project_conv", 0, 0, {}]]]}, {"class_name": "Dropout", "config": {"name": "block6d_drop", "trainable": true, "dtype": "float32", "rate": 0.17500000000000002, "noise_shape": [null, 1, 1, 1], "seed": null}, "name": "block6d_drop", "inbound_nodes": [[["block6d_project_bn", 0, 0, {}]]]}, {"class_name": "Add", "config": {"name": "block6d_add", "trainable": true, "dtype": "float32"}, "name": "block6d_add", "inbound_nodes": [[["block6d_drop", 0, 0, {}], ["block6c_add", 0, 0, {}]]]}, {"class_name": "Conv2D", "config": {"name": "block7a_expand_conv", "trainable": true, "dtype": "float32", "filters": 1152, "kernel_size": [1, 1], "strides": [1, 1], "padding": "same", "data_format": "channels_last", "dilation_rate": [1, 1], "groups": 1, "activation": "linear", "use_bias": false, "kernel_initializer": {"module": "keras.initializers", "class_name": "VarianceScaling", "config": {"scale": 2.0, "mode": "fan_out", "distribution": "truncated_normal", "seed": null}, "registered_name": null}, "bias_initializer": {"module": "keras.initializers", "class_name": "Zeros", "config": {}, "registered_name": null}, "kernel_regularizer": null, "bias_regularizer": null, "activity_regularizer": null, "kernel_constraint": null, "bias_constraint": null}, "name": "block7a_expand_conv", "inbound_nodes": [[["block6d_add", 0, 0, {}]]]}, {"class_name": "BatchNormalization", "config": {"name": "block7a_expand_bn", "trainable": true, "dtype": "float32", "axis": [3], "momentum": 0.99, "epsilon": 0.001, "center": true, "scale": true, "beta_initializer": {"module": "keras.initializers", "class_name": "Zeros", "config": {}, "registered_name": null}, "gamma_initializer": {"module": "keras.initializers", "class_name": "Ones", "config": {}, "registered_name": null}, "moving_mean_initializer": {"module": "keras.initializers", "class_name": "Zeros", "config": {}, "registered_name": null}, "moving_variance_initializer": {"module": "keras.initializers", "class_name": "Ones", "config": {}, "registered_name": null}, "beta_regularizer": null, "gamma_regularizer": null, "beta_constraint": null, "gamma_constraint": null}, "name": "block7a_expand_bn", "inbound_nodes": [[["block7a_expand_conv", 0, 0, {}]]]}, {"class_name": "Activation", "config": {"name": "block7a_expand_activation", "trainable": true, "dtype": "float32", "activation": "swish"}, "name": "block7a_expand_activation", "inbound_nodes": [[["block7a_expand_bn", 0, 0, {}]]]}, {"class_name": "DepthwiseConv2D", "config": {"name": "block7a_dwconv", "trainable": true, "dtype": "float32", "kernel_size": [3, 3], "strides": [1, 1], "padding": "same", "data_format": "channels_last", "dilation_rate": [1, 1], "groups": 1, "activation": "linear", "use_bias": false, "bias_initializer": {"module": "keras.initializers", "class_name": "Zeros", "config": {}, "registered_name": null}, "bias_regularizer": null, "activity_regularizer": null, "bias_constraint": null, "depth_multiplier": 1, "depthwise_initializer": {"module": "keras.initializers", "class_name": "VarianceScaling", "config": {"scale": 2.0, "mode": "fan_out", "distribution": "truncated_normal", "seed": null}, "registered_name": null}, "depthwise_regularizer": null, "depthwise_constraint": null}, "name": "block7a_dwconv", "inbound_nodes": [[["block7a_expand_activation", 0, 0, {}]]]}, {"class_name": "BatchNormalization", "config": {"name": "block7a_bn", "trainable": true, "dtype": "float32", "axis": [3], "momentum": 0.99, "epsilon": 0.001, "center": true, "scale": true, "beta_initializer": {"module": "keras.initializers", "class_name": "Zeros", "config": {}, "registered_name": null}, "gamma_initializer": {"module": "keras.initializers", "class_name": "Ones", "config": {}, "registered_name": null}, "moving_mean_initializer": {"module": "keras.initializers", "class_name": "Zeros", "config": {}, "registered_name": null}, "moving_variance_initializer": {"module": "keras.initializers", "class_name": "Ones", "config": {}, "registered_name": null}, "beta_regularizer": null, "gamma_regularizer": null, "beta_constraint": null, "gamma_constraint": null}, "name": "block7a_bn", "inbound_nodes": [[["block7a_dwconv", 0, 0, {}]]]}, {"class_name": "Activation", "config": {"name": "block7a_activation", "trainable": true, "dtype": "float32", "activation": "swish"}, "name": "block7a_activation", "inbound_nodes": [[["block7a_bn", 0, 0, {}]]]}, {"class_name": "GlobalAveragePooling2D", "config": {"name": "block7a_se_squeeze", "trainable": true, "dtype": "float32", "data_format": "channels_last", "keepdims": false}, "name": "block7a_se_squeeze", "inbound_nodes": [[["block7a_activation", 0, 0, {}]]]}, {"class_name": "Reshape", "config": {"name": "block7a_se_reshape", "trainable": true, "dtype": "float32", "target_shape": [1, 1, 1152]}, "name": "block7a_se_reshape", "inbound_nodes": [[["block7a_se_squeeze", 0, 0, {}]]]}, {"class_name": "Conv2D", "config": {"name": "block7a_se_reduce", "trainable": true, "dtype": "float32", "filters": 48, "kernel_size": [1, 1], "strides": [1, 1], "padding": "same", "data_format": "channels_last", "dilation_rate": [1, 1], "groups": 1, "activation": "swish", "use_bias": true, "kernel_initializer": {"module": "keras.initializers", "class_name": "VarianceScaling", "config": {"scale": 2.0, "mode": "fan_out", "distribution": "truncated_normal", "seed": null}, "registered_name": null}, "bias_initializer": {"module": "keras.initializers", "class_name": "Zeros", "config": {}, "registered_name": null}, "kernel_regularizer": null, "bias_regularizer": null, "activity_regularizer": null, "kernel_constraint": null, "bias_constraint": null}, "name": "block7a_se_reduce", "inbound_nodes": [[["block7a_se_reshape", 0, 0, {}]]]}, {"class_name": "Conv2D", "config": {"name": "block7a_se_expand", "trainable": true, "dtype": "float32", "filters": 1152, "kernel_size": [1, 1], "strides": [1, 1], "padding": "same", "data_format": "channels_last", "dilation_rate": [1, 1], "groups": 1, "activation": "sigmoid", "use_bias": true, "kernel_initializer": {"module": "keras.initializers", "class_name": "VarianceScaling", "config": {"scale": 2.0, "mode": "fan_out", "distribution": "truncated_normal", "seed": null}, "registered_name": null}, "bias_initializer": {"module": "keras.initializers", "class_name": "Zeros", "config": {}, "registered_name": null}, "kernel_regularizer": null, "bias_regularizer": null, "activity_regularizer": null, "kernel_constraint": null, "bias_constraint": null}, "name": "block7a_se_expand", "inbound_nodes": [[["block7a_se_reduce", 0, 0, {}]]]}, {"class_name": "Multiply", "config": {"name": "block7a_se_excite", "trainable": true, "dtype": "float32"}, "name": "block7a_se_excite", "inbound_nodes": [[["block7a_activation", 0, 0, {}], ["block7a_se_expand", 0, 0, {}]]]}, {"class_name": "Conv2D", "config": {"name": "block7a_project_conv", "trainable": true, "dtype": "float32", "filters": 320, "kernel_size": [1, 1], "strides": [1, 1], "padding": "same", "data_format": "channels_last", "dilation_rate": [1, 1], "groups": 1, "activation": "linear", "use_bias": false, "kernel_initializer": {"module": "keras.initializers", "class_name": "VarianceScaling", "config": {"scale": 2.0, "mode": "fan_out", "distribution": "truncated_normal", "seed": null}, "registered_name": null}, "bias_initializer": {"module": "keras.initializers", "class_name": "Zeros", "config": {}, "registered_name": null}, "kernel_regularizer": null, "bias_regularizer": null, "activity_regularizer": null, "kernel_constraint": null, "bias_constraint": null}, "name": "block7a_project_conv", "inbound_nodes": [[["block7a_se_excite", 0, 0, {}]]]}, {"class_name": "BatchNormalization", "config": {"name": "block7a_project_bn", "trainable": true, "dtype": "float32", "axis": [3], "momentum": 0.99, "epsilon": 0.001, "center": true, "scale": true, "beta_initializer": {"module": "keras.initializers", "class_name": "Zeros", "config": {}, "registered_name": null}, "gamma_initializer": {"module": "keras.initializers", "class_name": "Ones", "config": {}, "registered_name": null}, "moving_mean_initializer": {"module": "keras.initializers", "class_name": "Zeros", "config": {}, "registered_name": null}, "moving_variance_initializer": {"module": "keras.initializers", "class_name": "Ones", "config": {}, "registered_name": null}, "beta_regularizer": null, "gamma_regularizer": null, "beta_constraint": null, "gamma_constraint": null}, "name": "block7a_project_bn", "inbound_nodes": [[["block7a_project_conv", 0, 0, {}]]]}, {"class_name": "Conv2D", "config": {"name": "top_conv", "trainable": true, "dtype": "float32", "filters": 1280, "kernel_size": [1, 1], "strides": [1, 1], "padding": "same", "data_format": "channels_last", "dilation_rate": [1, 1], "groups": 1, "activation": "linear", "use_bias": false, "kernel_initializer": {"module": "keras.initializers", "class_name": "VarianceScaling", "config": {"scale": 2.0, "mode": "fan_out", "distribution": "truncated_normal", "seed": null}, "registered_name": null}, "bias_initializer": {"module": "keras.initializers", "class_name": "Zeros", "config": {}, "registered_name": null}, "kernel_regularizer": null, "bias_regularizer": null, "activity_regularizer": null, "kernel_constraint": null, "bias_constraint": null}, "name": "top_conv", "inbound_nodes": [[["block7a_project_bn", 0, 0, {}]]]}, {"class_name": "BatchNormalization", "config": {"name": "top_bn", "trainable": true, "dtype": "float32", "axis": [3], "momentum": 0.99, "epsilon": 0.001, "center": true, "scale": true, "beta_initializer": {"module": "keras.initializers", "class_name": "Zeros", "config": {}, "registered_name": null}, "gamma_initializer": {"module": "keras.initializers", "class_name": "Ones", "config": {}, "registered_name": null}, "moving_mean_initializer": {"module": "keras.initializers", "class_name": "Zeros", "config": {}, "registered_name": null}, "moving_variance_initializer": {"module": "keras.initializers", "class_name": "Ones", "config": {}, "registered_name": null}, "beta_regularizer": null, "gamma_regularizer": null, "beta_constraint": null, "gamma_constraint": null}, "name": "top_bn", "inbound_nodes": [[["top_conv", 0, 0, {}]]]}, {"class_name": "Activation", "config": {"name": "top_activation", "trainable": true, "dtype": "float32", "activation": "swish"}, "name": "top_activation", "inbound_nodes": [[["top_bn", 0, 0, {}]]]}], "input_layers": [["input_2", 0, 0]], "output_layers": [["top_activation", 0, 0]]}, "name": "efficientnetb0", "inbound_nodes": [[["image_input", 0, 0, {}]]]}, {"class_name": "GlobalAveragePooling2D", "config": {"name": "global_average_pooling2d_1", "trainable": true, "dtype": "float32", "data_format": "channels_last", "keepdims": false}, "name": "global_average_pooling2d_1", "inbound_nodes": [[["efficientnetb0", 1, 0, {}]]]}, {"class_name": "InputLayer", "config": {"batch_input_shape": [null], "dtype": "string", "sparse": false, "ragged": false, "name": "text_input"}, "name": "text_input", "inbound_nodes": []}, {"class_name": "Dropout", "config": {"name": "dropout_2", "trainable": true, "dtype": "float32", "rate": 0.5, "noise_shape": null, "seed": null}, "name": "dropout_2", "inbound_nodes": [[["global_average_pooling2d_1", 0, 0, {}]]]}, {"class_name": "Custom>USELayer", "config": {"name": "use_layer_1", "trainable": true, "dtype": "float32"}, "name": "use_layer_1", "inbound_nodes": [[["text_input", 0, 0, {}]]]}, {"class_name": "Dense", "config": {"name": "dense_3", "trainable": true, "dtype": "float32", "units": 256, "activation": "relu", "use_bias": true, "kernel_initializer": {"module": "keras.initializers", "class_name": "GlorotUniform", "config": {"seed": null}, "registered_name": null}, "bias_initializer": {"module": "keras.initializers", "class_name": "Zeros", "config": {}, "registered_name": null}, "kernel_regularizer": null, "bias_regularizer": null, "activity_regularizer": null, "kernel_constraint": null, "bias_constraint": null}, "name": "dense_3", "inbound_nodes": [[["dropout_2", 0, 0, {}]]]}, {"class_name": "Dense", "config": {"name": "dense_4", "trainable": true, "dtype": "float32", "units": 256, "activation": "relu", "use_bias": true, "kernel_initializer": {"module": "keras.initializers", "class_name": "GlorotUniform", "config": {"seed": null}, "registered_name": null}, "bias_initializer": {"module": "keras.initializers", "class_name": "Zeros", "config": {}, "registered_name": null}, "kernel_regularizer": null, "bias_regularizer": null, "activity_regularizer": null, "kernel_constraint": null, "bias_constraint": null}, "name": "dense_4", "inbound_nodes": [[["use_layer_1", 0, 0, {}]]]}, {"class_name": "Concatenate", "config": {"name": "concatenate_1", "trainable": true, "dtype": "float32", "axis": -1}, "name": "concatenate_1", "inbound_nodes": [[["dense_3", 0, 0, {}], ["dense_4", 0, 0, {}]]]}, {"class_name": "Dropout", "config": {"name": "dropout_3", "trainable": true, "dtype": "float32", "rate": 0.5, "noise_shape": null, "seed": null}, "name": "dropout_3", "inbound_nodes": [[["concatenate_1", 0, 0, {}]]]}, {"class_name": "Dense", "config": {"name": "dense_5", "trainable": true, "dtype": "float32", "units": 44, "activation": "linear", "use_bias": true, "kernel_initializer": {"module": "keras.initializers", "class_name": "GlorotUniform", "config": {"seed": null}, "registered_name": null}, "bias_initializer": {"module": "keras.initializers", "class_name": "Zeros", "config": {}, "registered_name": null}, "kernel_regularizer": null, "bias_regularizer": null, "activity_regularizer": null, "kernel_constraint": null, "bias_constraint": null}, "name": "dense_5", "inbound_nodes": [[["dropout_3", 0, 0, {}]]]}], "input_layers": [["image_input", 0, 0], ["text_input", 0, 0]], "output_layers": [["dense_5", 0, 0]]}}, "training_config": {"loss": "mean_squared_error", "metrics": [[{"class_name": "MeanMetricWrapper", "config": {"name": "accuracy", "dtype": "float32", "fn": "categorical_accuracy"}}]], "weighted_metrics": null, "loss_weights": null, "optimizer_config": {"class_name": "Custom>Adam", "config": {"name": "Adam", "weight_decay": null, "clipnorm": null, "global_clipnorm": null, "clipvalue": null, "use_ema": false, "ema_momentum": 0.99, "ema_overwrite_frequency": null, "jit_compile": false, "is_legacy_optimizer": false, "learning_rate": 9.999999747378752e-06, "beta_1": 0.9, "beta_2": 0.999, "epsilon": 1e-07, "amsgrad": false}}}}, "weightsManifest": [{"paths": ["group1-shard1of250.bin", "group1-shard2of250.bin", "group1-shard3of250.bin", "group1-shard4of250.bin", "group1-shard5of250.bin", "group1-shard6of250.bin", "group1-shard7of250.bin", "group1-shard8of250.bin", "group1-shard9of250.bin", "group1-shard10of250.bin", "group1-shard11of250.bin", "group1-shard12of250.bin", "group1-shard13of250.bin", "group1-shard14of250.bin", "group1-shard15of250.bin", "group1-shard16of250.bin", "group1-shard17of250.bin", "group1-shard18of250.bin", "group1-shard19of250.bin", "group1-shard20of250.bin", "group1-shard21of250.bin", "group1-shard22of250.bin", "group1-shard23of250.bin", "group1-shard24of250.bin", "group1-shard25of250.bin", "group1-shard26of250.bin", "group1-shard27of250.bin", "group1-shard28of250.bin", "group1-shard29of250.bin", "group1-shard30of250.bin", "group1-shard31of250.bin", "group1-shard32of250.bin", "group1-shard33of250.bin", "group1-shard34of250.bin", "group1-shard35of250.bin", "group1-shard36of250.bin", "group1-shard37of250.bin", "group1-shard38of250.bin", "group1-shard39of250.bin", "group1-shard40of250.bin", "group1-shard41of250.bin", "group1-shard42of250.bin", "group1-shard43of250.bin", "group1-shard44of250.bin", "group1-shard45of250.bin", "group1-shard46of250.bin", "group1-shard47of250.bin", "group1-shard48of250.bin", "group1-shard49of250.bin", "group1-shard50of250.bin", "group1-shard51of250.bin", "group1-shard52of250.bin", "group1-shard53of250.bin", "group1-shard54of250.bin", "group1-shard55of250.bin", "group1-shard56of250.bin", "group1-shard57of250.bin", "group1-shard58of250.bin", "group1-shard59of250.bin", "group1-shard60of250.bin", "group1-shard61of250.bin", "group1-shard62of250.bin", "group1-shard63of250.bin", "group1-shard64of250.bin", "group1-shard65of250.bin", "group1-shard66of250.bin", "group1-shard67of250.bin", "group1-shard68of250.bin", "group1-shard69of250.bin", "group1-shard70of250.bin", "group1-shard71of250.bin", "group1-shard72of250.bin", "group1-shard73of250.bin", "group1-shard74of250.bin", "group1-shard75of250.bin", "group1-shard76of250.bin", "group1-shard77of250.bin", "group1-shard78of250.bin", "group1-shard79of250.bin", "group1-shard80of250.bin", "group1-shard81of250.bin", "group1-shard82of250.bin", "group1-shard83of250.bin", "group1-shard84of250.bin", "group1-shard85of250.bin", "group1-shard86of250.bin", "group1-shard87of250.bin", "group1-shard88of250.bin", "group1-shard89of250.bin", "group1-shard90of250.bin", "group1-shard91of250.bin", "group1-shard92of250.bin", "group1-shard93of250.bin", "group1-shard94of250.bin", "group1-shard95of250.bin", "group1-shard96of250.bin", "group1-shard97of250.bin", "group1-shard98of250.bin", "group1-shard99of250.bin", "group1-shard100of250.bin", "group1-shard101of250.bin", "group1-shard102of250.bin", "group1-shard103of250.bin", "group1-shard104of250.bin", "group1-shard105of250.bin", "group1-shard106of250.bin", "group1-shard107of250.bin", "group1-shard108of250.bin", "group1-shard109of250.bin", "group1-shard110of250.bin", "group1-shard111of250.bin", "group1-shard112of250.bin", "group1-shard113of250.bin", "group1-shard114of250.bin", "group1-shard115of250.bin", "group1-shard116of250.bin", "group1-shard117of250.bin", "group1-shard118of250.bin", "group1-shard119of250.bin", "group1-shard120of250.bin", "group1-shard121of250.bin", "group1-shard122of250.bin", "group1-shard123of250.bin", "group1-shard124of250.bin", "group1-shard125of250.bin", "group1-shard126of250.bin", "group1-shard127of250.bin", "group1-shard128of250.bin", "group1-shard129of250.bin", "group1-shard130of250.bin", "group1-shard131of250.bin", "group1-shard132of250.bin", "group1-shard133of250.bin", "group1-shard134of250.bin", "group1-shard135of250.bin", "group1-shard136of250.bin", "group1-shard137of250.bin", "group1-shard138of250.bin", "group1-shard139of250.bin", "group1-shard140of250.bin", "group1-shard141of250.bin", "group1-shard142of250.bin", "group1-shard143of250.bin", "group1-shard144of250.bin", "group1-shard145of250.bin", "group1-shard146of250.bin", "group1-shard147of250.bin", "group1-shard148of250.bin", "group1-shard149of250.bin", "group1-shard150of250.bin", "group1-shard151of250.bin", "group1-shard152of250.bin", "group1-shard153of250.bin", "group1-shard154of250.bin", "group1-shard155of250.bin", "group1-shard156of250.bin", "group1-shard157of250.bin", "group1-shard158of250.bin", "group1-shard159of250.bin", "group1-shard160of250.bin", "group1-shard161of250.bin", "group1-shard162of250.bin", "group1-shard163of250.bin", "group1-shard164of250.bin", "group1-shard165of250.bin", "group1-shard166of250.bin", "group1-shard167of250.bin", "group1-shard168of250.bin", "group1-shard169of250.bin", "group1-shard170of250.bin", "group1-shard171of250.bin", "group1-shard172of250.bin", "group1-shard173of250.bin", "group1-shard174of250.bin", "group1-shard175of250.bin", "group1-shard176of250.bin", "group1-shard177of250.bin", "group1-shard178of250.bin", "group1-shard179of250.bin", "group1-shard180of250.bin", "group1-shard181of250.bin", "group1-shard182of250.bin", "group1-shard183of250.bin", "group1-shard184of250.bin", "group1-shard185of250.bin", "group1-shard186of250.bin", "group1-shard187of250.bin", "group1-shard188of250.bin", "group1-shard189of250.bin", "group1-shard190of250.bin", "group1-shard191of250.bin", "group1-shard192of250.bin", "group1-shard193of250.bin", "group1-shard194of250.bin", "group1-shard195of250.bin", "group1-shard196of250.bin", "group1-shard197of250.bin", "group1-shard198of250.bin", "group1-shard199of250.bin", "group1-shard200of250.bin", "group1-shard201of250.bin", "group1-shard202of250.bin", "group1-shard203of250.bin", "group1-shard204of250.bin", "group1-shard205of250.bin", "group1-shard206of250.bin", "group1-shard207of250.bin", "group1-shard208of250.bin", "group1-shard209of250.bin", "group1-shard210of250.bin", "group1-shard211of250.bin", "group1-shard212of250.bin", "group1-shard213of250.bin", "group1-shard214of250.bin", "group1-shard215of250.bin", "group1-shard216of250.bin", "group1-shard217of250.bin", "group1-shard218of250.bin", "group1-shard219of250.bin", "group1-shard220of250.bin", "group1-shard221of250.bin", "group1-shard222of250.bin", "group1-shard223of250.bin", "group1-shard224of250.bin", "group1-shard225of250.bin", "group1-shard226of250.bin", "group1-shard227of250.bin", "group1-shard228of250.bin", "group1-shard229of250.bin", "group1-shard230of250.bin", "group1-shard231of250.bin", "group1-shard232of250.bin", "group1-shard233of250.bin", "group1-shard234of250.bin", "group1-shard235of250.bin", "group1-shard236of250.bin", "group1-shard237of250.bin", "group1-shard238of250.bin", "group1-shard239of250.bin", "group1-shard240of250.bin", "group1-shard241of250.bin", "group1-shard242of250.bin", "group1-shard243of250.bin", "group1-shard244of250.bin", "group1-shard245of250.bin", "group1-shard246of250.bin", "group1-shard247of250.bin", "group1-shard248of250.bin", "group1-shard249of250.bin", "group1-shard250of250.bin"], "weights": [{"name": "dense_3/kernel", "shape": [1280, 256], "dtype": "float32"}, {"name": "dense_3/bias", "shape": [256], "dtype": "float32"}, {"name": "dense_4/kernel", "shape": [512, 256], "dtype": "float32"}, {"name": "dense_4/bias", "shape": [256], "dtype": "float32"}, {"name": "dense_5/kernel", "shape": [512, 44], "dtype": "float32"}, {"name": "dense_5/bias", "shape": [44], "dtype": "float32"}, {"name": "stem_conv/kernel", "shape": [3, 3, 3, 32], "dtype": "float32"}, {"name": "stem_bn/gamma", "shape": [32], "dtype": "float32"}, {"name": "stem_bn/beta", "shape": [32], "dtype": "float32"}, {"name": "block1a_dwconv/depthwise_kernel", "shape": [3, 3, 32, 1], "dtype": "float32"}, {"name": "block1a_bn/gamma", "shape": [32], "dtype": "float32"}, {"name": "block1a_bn/beta", "shape": [32], "dtype": "float32"}, {"name": "block1a_se_reduce/kernel", "shape": [1, 1, 32, 8], "dtype": "float32"}, {"name": "block1a_se_reduce/bias", "shape": [8], "dtype": "float32"}, {"name": "block1a_se_expand/kernel", "shape": [1, 1, 8, 32], "dtype": "float32"}, {"name": "block1a_se_expand/bias", "shape": [32], "dtype": "float32"}, {"name": "block1a_project_conv/kernel", "shape": [1, 1, 32, 16], "dtype": "float32"}, {"name": "block1a_project_bn/gamma", "shape": [16], "dtype": "float32"}, {"name": "block1a_project_bn/beta", "shape": [16], "dtype": "float32"}, {"name": "block2a_expand_conv/kernel", "shape": [1, 1, 16, 96], "dtype": "float32"}, {"name": "block2a_expand_bn/gamma", "shape": [96], "dtype": "float32"}, {"name": "block2a_expand_bn/beta", "shape": [96], "dtype": "float32"}, {"name": "block2a_dwconv/depthwise_kernel", "shape": [3, 3, 96, 1], "dtype": "float32"}, {"name": "block2a_bn/gamma", "shape": [96], "dtype": "float32"}, {"name": "block2a_bn/beta", "shape": [96], "dtype": "float32"}, {"name": "block2a_se_reduce/kernel", "shape": [1, 1, 96, 4], "dtype": "float32"}, {"name": "block2a_se_reduce/bias", "shape": [4], "dtype": "float32"}, {"name": "block2a_se_expand/kernel", "shape": [1, 1, 4, 96], "dtype": "float32"}, {"name": "block2a_se_expand/bias", "shape": [96], "dtype": "float32"}, {"name": "block2a_project_conv/kernel", "shape": [1, 1, 96, 24], "dtype": "float32"}, {"name": "block2a_project_bn/gamma", "shape": [24], "dtype": "float32"}, {"name": "block2a_project_bn/beta", "shape": [24], "dtype": "float32"}, {"name": "block2b_expand_conv/kernel", "shape": [1, 1, 24, 144], "dtype": "float32"}, {"name": "block2b_expand_bn/gamma", "shape": [144], "dtype": "float32"}, {"name": "block2b_expand_bn/beta", "shape": [144], "dtype": "float32"}, {"name": "block2b_dwconv/depthwise_kernel", "shape": [3, 3, 144, 1], "dtype": "float32"}, {"name": "block2b_bn/gamma", "shape": [144], "dtype": "float32"}, {"name": "block2b_bn/beta", "shape": [144], "dtype": "float32"}, {"name": "block2b_se_reduce/kernel", "shape": [1, 1, 144, 6], "dtype": "float32"}, {"name": "block2b_se_reduce/bias", "shape": [6], "dtype": "float32"}, {"name": "block2b_se_expand/kernel", "shape": [1, 1, 6, 144], "dtype": "float32"}, {"name": "block2b_se_expand/bias", "shape": [144], "dtype": "float32"}, {"name": "block2b_project_conv/kernel", "shape": [1, 1, 144, 24], "dtype": "float32"}, {"name": "block2b_project_bn/gamma", "shape": [24], "dtype": "float32"}, {"name": "block2b_project_bn/beta", "shape": [24], "dtype": "float32"}, {"name": "block3a_expand_conv/kernel", "shape": [1, 1, 24, 144], "dtype": "float32"}, {"name": "block3a_expand_bn/gamma", "shape": [144], "dtype": "float32"}, {"name": "block3a_expand_bn/beta", "shape": [144], "dtype": "float32"}, {"name": "block3a_dwconv/depthwise_kernel", "shape": [5, 5, 144, 1], "dtype": "float32"}, {"name": "block3a_bn/gamma", "shape": [144], "dtype": "float32"}, {"name": "block3a_bn/beta", "shape": [144], "dtype": "float32"}, {"name": "block3a_se_reduce/kernel", "shape": [1, 1, 144, 6], "dtype": "float32"}, {"name": "block3a_se_reduce/bias", "shape": [6], "dtype": "float32"}, {"name": "block3a_se_expand/kernel", "shape": [1, 1, 6, 144], "dtype": "float32"}, {"name": "block3a_se_expand/bias", "shape": [144], "dtype": "float32"}, {"name": "block3a_project_conv/kernel", "shape": [1, 1, 144, 40], "dtype": "float32"}, {"name": "block3a_project_bn/gamma", "shape": [40], "dtype": "float32"}, {"name": "block3a_project_bn/beta", "shape": [40], "dtype": "float32"}, {"name": "block3b_expand_conv/kernel", "shape": [1, 1, 40, 240], "dtype": "float32"}, {"name": "block3b_expand_bn/gamma", "shape": [240], "dtype": "float32"}, {"name": "block3b_expand_bn/beta", "shape": [240], "dtype": "float32"}, {"name": "block3b_dwconv/depthwise_kernel", "shape": [5, 5, 240, 1], "dtype": "float32"}, {"name": "block3b_bn/gamma", "shape": [240], "dtype": "float32"}, {"name": "block3b_bn/beta", "shape": [240], "dtype": "float32"}, {"name": "block3b_se_reduce/kernel", "shape": [1, 1, 240, 10], "dtype": "float32"}, {"name": "block3b_se_reduce/bias", "shape": [10], "dtype": "float32"}, {"name": "block3b_se_expand/kernel", "shape": [1, 1, 10, 240], "dtype": "float32"}, {"name": "block3b_se_expand/bias", "shape": [240], "dtype": "float32"}, {"name": "block3b_project_conv/kernel", "shape": [1, 1, 240, 40], "dtype": "float32"}, {"name": "block3b_project_bn/gamma", "shape": [40], "dtype": "float32"}, {"name": "block3b_project_bn/beta", "shape": [40], "dtype": "float32"}, {"name": "block4a_expand_conv/kernel", "shape": [1, 1, 40, 240], "dtype": "float32"}, {"name": "block4a_expand_bn/gamma", "shape": [240], "dtype": "float32"}, {"name": "block4a_expand_bn/beta", "shape": [240], "dtype": "float32"}, {"name": "block4a_dwconv/depthwise_kernel", "shape": [3, 3, 240, 1], "dtype": "float32"}, {"name": "block4a_bn/gamma", "shape": [240], "dtype": "float32"}, {"name": "block4a_bn/beta", "shape": [240], "dtype": "float32"}, {"name": "block4a_se_reduce/kernel", "shape": [1, 1, 240, 10], "dtype": "float32"}, {"name": "block4a_se_reduce/bias", "shape": [10], "dtype": "float32"}, {"name": "block4a_se_expand/kernel", "shape": [1, 1, 10, 240], "dtype": "float32"}, {"name": "block4a_se_expand/bias", "shape": [240], "dtype": "float32"}, {"name": "block4a_project_conv/kernel", "shape": [1, 1, 240, 80], "dtype": "float32"}, {"name": "block4a_project_bn/gamma", "shape": [80], "dtype": "float32"}, {"name": "block4a_project_bn/beta", "shape": [80], "dtype": "float32"}, {"name": "block4b_expand_conv/kernel", "shape": [1, 1, 80, 480], "dtype": "float32"}, {"name": "block4b_expand_bn/gamma", "shape": [480], "dtype": "float32"}, {"name": "block4b_expand_bn/beta", "shape": [480], "dtype": "float32"}, {"name": "block4b_dwconv/depthwise_kernel", "shape": [3, 3, 480, 1], "dtype": "float32"}, {"name": "block4b_bn/gamma", "shape": [480], "dtype": "float32"}, {"name": "block4b_bn/beta", "shape": [480], "dtype": "float32"}, {"name": "block4b_se_reduce/kernel", "shape": [1, 1, 480, 20], "dtype": "float32"}, {"name": "block4b_se_reduce/bias", "shape": [20], "dtype": "float32"}, {"name": "block4b_se_expand/kernel", "shape": [1, 1, 20, 480], "dtype": "float32"}, {"name": "block4b_se_expand/bias", "shape": [480], "dtype": "float32"}, {"name": "block4b_project_conv/kernel", "shape": [1, 1, 480, 80], "dtype": "float32"}, {"name": "block4b_project_bn/gamma", "shape": [80], "dtype": "float32"}, {"name": "block4b_project_bn/beta", "shape": [80], "dtype": "float32"}, {"name": "block4c_expand_conv/kernel", "shape": [1, 1, 80, 480], "dtype": "float32"}, {"name": "block4c_expand_bn/gamma", "shape": [480], "dtype": "float32"}, {"name": "block4c_expand_bn/beta", "shape": [480], "dtype": "float32"}, {"name": "block4c_dwconv/depthwise_kernel", "shape": [3, 3, 480, 1], "dtype": "float32"}, {"name": "block4c_bn/gamma", "shape": [480], "dtype": "float32"}, {"name": "block4c_bn/beta", "shape": [480], "dtype": "float32"}, {"name": "block4c_se_reduce/kernel", "shape": [1, 1, 480, 20], "dtype": "float32"}, {"name": "block4c_se_reduce/bias", "shape": [20], "dtype": "float32"}, {"name": "block4c_se_expand/kernel", "shape": [1, 1, 20, 480], "dtype": "float32"}, {"name": "block4c_se_expand/bias", "shape": [480], "dtype": "float32"}, {"name": "block4c_project_conv/kernel", "shape": [1, 1, 480, 80], "dtype": "float32"}, {"name": "block4c_project_bn/gamma", "shape": [80], "dtype": "float32"}, {"name": "block4c_project_bn/beta", "shape": [80], "dtype": "float32"}, {"name": "block5a_expand_conv/kernel", "shape": [1, 1, 80, 480], "dtype": "float32"}, {"name": "block5a_expand_bn/gamma", "shape": [480], "dtype": "float32"}, {"name": "block5a_expand_bn/beta", "shape": [480], "dtype": "float32"}, {"name": "block5a_dwconv/depthwise_kernel", "shape": [5, 5, 480, 1], "dtype": "float32"}, {"name": "block5a_bn/gamma", "shape": [480], "dtype": "float32"}, {"name": "block5a_bn/beta", "shape": [480], "dtype": "float32"}, {"name": "block5a_se_reduce/kernel", "shape": [1, 1, 480, 20], "dtype": "float32"}, {"name": "block5a_se_reduce/bias", "shape": [20], "dtype": "float32"}, {"name": "block5a_se_expand/kernel", "shape": [1, 1, 20, 480], "dtype": "float32"}, {"name": "block5a_se_expand/bias", "shape": [480], "dtype": "float32"}, {"name": "block5a_project_conv/kernel", "shape": [1, 1, 480, 112], "dtype": "float32"}, {"name": "block5a_project_bn/gamma", "shape": [112], "dtype": "float32"}, {"name": "block5a_project_bn/beta", "shape": [112], "dtype": "float32"}, {"name": "block5b_expand_conv/kernel", "shape": [1, 1, 112, 672], "dtype": "float32"}, {"name": "block5b_expand_bn/gamma", "shape": [672], "dtype": "float32"}, {"name": "block5b_expand_bn/beta", "shape": [672], "dtype": "float32"}, {"name": "block5b_dwconv/depthwise_kernel", "shape": [5, 5, 672, 1], "dtype": "float32"}, {"name": "block5b_bn/gamma", "shape": [672], "dtype": "float32"}, {"name": "block5b_bn/beta", "shape": [672], "dtype": "float32"}, {"name": "block5b_se_reduce/kernel", "shape": [1, 1, 672, 28], "dtype": "float32"}, {"name": "block5b_se_reduce/bias", "shape": [28], "dtype": "float32"}, {"name": "block5b_se_expand/kernel", "shape": [1, 1, 28, 672], "dtype": "float32"}, {"name": "block5b_se_expand/bias", "shape": [672], "dtype": "float32"}, {"name": "block5b_project_conv/kernel", "shape": [1, 1, 672, 112], "dtype": "float32"}, {"name": "block5b_project_bn/gamma", "shape": [112], "dtype": "float32"}, {"name": "block5b_project_bn/beta", "shape": [112], "dtype": "float32"}, {"name": "block5c_expand_conv/kernel", "shape": [1, 1, 112, 672], "dtype": "float32"}, {"name": "block5c_expand_bn/gamma", "shape": [672], "dtype": "float32"}, {"name": "block5c_expand_bn/beta", "shape": [672], "dtype": "float32"}, {"name": "block5c_dwconv/depthwise_kernel", "shape": [5, 5, 672, 1], "dtype": "float32"}, {"name": "block5c_bn/gamma", "shape": [672], "dtype": "float32"}, {"name": "block5c_bn/beta", "shape": [672], "dtype": "float32"}, {"name": "block5c_se_reduce/kernel", "shape": [1, 1, 672, 28], "dtype": "float32"}, {"name": "block5c_se_reduce/bias", "shape": [28], "dtype": "float32"}, {"name": "block5c_se_expand/kernel", "shape": [1, 1, 28, 672], "dtype": "float32"}, {"name": "block5c_se_expand/bias", "shape": [672], "dtype": "float32"}, {"name": "block5c_project_conv/kernel", "shape": [1, 1, 672, 112], "dtype": "float32"}, {"name": "block5c_project_bn/gamma", "shape": [112], "dtype": "float32"}, {"name": "block5c_project_bn/beta", "shape": [112], "dtype": "float32"}, {"name": "block6a_expand_conv/kernel", "shape": [1, 1, 112, 672], "dtype": "float32"}, {"name": "block6a_expand_bn/gamma", "shape": [672], "dtype": "float32"}, {"name": "block6a_expand_bn/beta", "shape": [672], "dtype": "float32"}, {"name": "block6a_dwconv/depthwise_kernel", "shape": [5, 5, 672, 1], "dtype": "float32"}, {"name": "block6a_bn/gamma", "shape": [672], "dtype": "float32"}, {"name": "block6a_bn/beta", "shape": [672], "dtype": "float32"}, {"name": "block6a_se_reduce/kernel", "shape": [1, 1, 672, 28], "dtype": "float32"}, {"name": "block6a_se_reduce/bias", "shape": [28], "dtype": "float32"}, {"name": "block6a_se_expand/kernel", "shape": [1, 1, 28, 672], "dtype": "float32"}, {"name": "block6a_se_expand/bias", "shape": [672], "dtype": "float32"}, {"name": "block6a_project_conv/kernel", "shape": [1, 1, 672, 192], "dtype": "float32"}, {"name": "block6a_project_bn/gamma", "shape": [192], "dtype": "float32"}, {"name": "block6a_project_bn/beta", "shape": [192], "dtype": "float32"}, {"name": "block6b_expand_conv/kernel", "shape": [1, 1, 192, 1152], "dtype": "float32"}, {"name": "block6b_expand_bn/gamma", "shape": [1152], "dtype": "float32"}, {"name": "block6b_expand_bn/beta", "shape": [1152], "dtype": "float32"}, {"name": "block6b_dwconv/depthwise_kernel", "shape": [5, 5, 1152, 1], "dtype": "float32"}, {"name": "block6b_bn/gamma", "shape": [1152], "dtype": "float32"}, {"name": "block6b_bn/beta", "shape": [1152], "dtype": "float32"}, {"name": "block6b_se_reduce/kernel", "shape": [1, 1, 1152, 48], "dtype": "float32"}, {"name": "block6b_se_reduce/bias", "shape": [48], "dtype": "float32"}, {"name": "block6b_se_expand/kernel", "shape": [1, 1, 48, 1152], "dtype": "float32"}, {"name": "block6b_se_expand/bias", "shape": [1152], "dtype": "float32"}, {"name": "block6b_project_conv/kernel", "shape": [1, 1, 1152, 192], "dtype": "float32"}, {"name": "block6b_project_bn/gamma", "shape": [192], "dtype": "float32"}, {"name": "block6b_project_bn/beta", "shape": [192], "dtype": "float32"}, {"name": "block6c_expand_conv/kernel", "shape": [1, 1, 192, 1152], "dtype": "float32"}, {"name": "block6c_expand_bn/gamma", "shape": [1152], "dtype": "float32"}, {"name": "block6c_expand_bn/beta", "shape": [1152], "dtype": "float32"}, {"name": "block6c_dwconv/depthwise_kernel", "shape": [5, 5, 1152, 1], "dtype": "float32"}, {"name": "block6c_bn/gamma", "shape": [1152], "dtype": "float32"}, {"name": "block6c_bn/beta", "shape": [1152], "dtype": "float32"}, {"name": "block6c_se_reduce/kernel", "shape": [1, 1, 1152, 48], "dtype": "float32"}, {"name": "block6c_se_reduce/bias", "shape": [48], "dtype": "float32"}, {"name": "block6c_se_expand/kernel", "shape": [1, 1, 48, 1152], "dtype": "float32"}, {"name": "block6c_se_expand/bias", "shape": [1152], "dtype": "float32"}, {"name": "block6c_project_conv/kernel", "shape": [1, 1, 1152, 192], "dtype": "float32"}, {"name": "block6c_project_bn/gamma", "shape": [192], "dtype": "float32"}, {"name": "block6c_project_bn/beta", "shape": [192], "dtype": "float32"}, {"name": "block6d_expand_conv/kernel", "shape": [1, 1, 192, 1152], "dtype": "float32"}, {"name": "block6d_expand_bn/gamma", "shape": [1152], "dtype": "float32"}, {"name": "block6d_expand_bn/beta", "shape": [1152], "dtype": "float32"}, {"name": "block6d_dwconv/depthwise_kernel", "shape": [5, 5, 1152, 1], "dtype": "float32"}, {"name": "block6d_bn/gamma", "shape": [1152], "dtype": "float32"}, {"name": "block6d_bn/beta", "shape": [1152], "dtype": "float32"}, {"name": "block6d_se_reduce/kernel", "shape": [1, 1, 1152, 48], "dtype": "float32"}, {"name": "block6d_se_reduce/bias", "shape": [48], "dtype": "float32"}, {"name": "block6d_se_expand/kernel", "shape": [1, 1, 48, 1152], "dtype": "float32"}, {"name": "block6d_se_expand/bias", "shape": [1152], "dtype": "float32"}, {"name": "block6d_project_conv/kernel", "shape": [1, 1, 1152, 192], "dtype": "float32"}, {"name": "block6d_project_bn/gamma", "shape": [192], "dtype": "float32"}, {"name": "block6d_project_bn/beta", "shape": [192], "dtype": "float32"}, {"name": "block7a_expand_conv/kernel", "shape": [1, 1, 192, 1152], "dtype": "float32"}, {"name": "block7a_expand_bn/gamma", "shape": [1152], "dtype": "float32"}, {"name": "block7a_expand_bn/beta", "shape": [1152], "dtype": "float32"}, {"name": "block7a_dwconv/depthwise_kernel", "shape": [3, 3, 1152, 1], "dtype": "float32"}, {"name": "block7a_bn/gamma", "shape": [1152], "dtype": "float32"}, {"name": "block7a_bn/beta", "shape": [1152], "dtype": "float32"}, {"name": "block7a_se_reduce/kernel", "shape": [1, 1, 1152, 48], "dtype": "float32"}, {"name": "block7a_se_reduce/bias", "shape": [48], "dtype": "float32"}, {"name": "block7a_se_expand/kernel", "shape": [1, 1, 48, 1152], "dtype": "float32"}, {"name": "block7a_se_expand/bias", "shape": [1152], "dtype": "float32"}, {"name": "block7a_project_conv/kernel", "shape": [1, 1, 1152, 320], "dtype": "float32"}, {"name": "block7a_project_bn/gamma", "shape": [320], "dtype": "float32"}, {"name": "block7a_project_bn/beta", "shape": [320], "dtype": "float32"}, {"name": "top_conv/kernel", "shape": [1, 1, 320, 1280], "dtype": "float32"}, {"name": "top_bn/gamma", "shape": [1280], "dtype": "float32"}, {"name": "top_bn/beta", "shape": [1280], "dtype": "float32"}, {"name": "normalization_1/mean", "shape": [3], "dtype": "float32"}, {"name": "normalization_1/variance", "shape": [3], "dtype": "float32"}, {"name": "normalization_1/count", "shape": [], "dtype": "int32"}, {"name": "stem_bn/moving_mean", "shape": [32], "dtype": "float32"}, {"name": "stem_bn/moving_variance", "shape": [32], "dtype": "float32"}, {"name": "block1a_bn/moving_mean", "shape": [32], "dtype": "float32"}, {"name": "block1a_bn/moving_variance", "shape": [32], "dtype": "float32"}, {"name": "block1a_project_bn/moving_mean", "shape": [16], "dtype": "float32"}, {"name": "block1a_project_bn/moving_variance", "shape": [16], "dtype": "float32"}, {"name": "block2a_expand_bn/moving_mean", "shape": [96], "dtype": "float32"}, {"name": "block2a_expand_bn/moving_variance", "shape": [96], "dtype": "float32"}, {"name": "block2a_bn/moving_mean", "shape": [96], "dtype": "float32"}, {"name": "block2a_bn/moving_variance", "shape": [96], "dtype": "float32"}, {"name": "block2a_project_bn/moving_mean", "shape": [24], "dtype": "float32"}, {"name": "block2a_project_bn/moving_variance", "shape": [24], "dtype": "float32"}, {"name": "block2b_expand_bn/moving_mean", "shape": [144], "dtype": "float32"}, {"name": "block2b_expand_bn/moving_variance", "shape": [144], "dtype": "float32"}, {"name": "block2b_bn/moving_mean", "shape": [144], "dtype": "float32"}, {"name": "block2b_bn/moving_variance", "shape": [144], "dtype": "float32"}, {"name": "block2b_project_bn/moving_mean", "shape": [24], "dtype": "float32"}, {"name": "block2b_project_bn/moving_variance", "shape": [24], "dtype": "float32"}, {"name": "block3a_expand_bn/moving_mean", "shape": [144], "dtype": "float32"}, {"name": "block3a_expand_bn/moving_variance", "shape": [144], "dtype": "float32"}, {"name": "block3a_bn/moving_mean", "shape": [144], "dtype": "float32"}, {"name": "block3a_bn/moving_variance", "shape": [144], "dtype": "float32"}, {"name": "block3a_project_bn/moving_mean", "shape": [40], "dtype": "float32"}, {"name": "block3a_project_bn/moving_variance", "shape": [40], "dtype": "float32"}, {"name": "block3b_expand_bn/moving_mean", "shape": [240], "dtype": "float32"}, {"name": "block3b_expand_bn/moving_variance", "shape": [240], "dtype": "float32"}, {"name": "block3b_bn/moving_mean", "shape": [240], "dtype": "float32"}, {"name": "block3b_bn/moving_variance", "shape": [240], "dtype": "float32"}, {"name": "block3b_project_bn/moving_mean", "shape": [40], "dtype": "float32"}, {"name": "block3b_project_bn/moving_variance", "shape": [40], "dtype": "float32"}, {"name": "block4a_expand_bn/moving_mean", "shape": [240], "dtype": "float32"}, {"name": "block4a_expand_bn/moving_variance", "shape": [240], "dtype": "float32"}, {"name": "block4a_bn/moving_mean", "shape": [240], "dtype": "float32"}, {"name": "block4a_bn/moving_variance", "shape": [240], "dtype": "float32"}, {"name": "block4a_project_bn/moving_mean", "shape": [80], "dtype": "float32"}, {"name": "block4a_project_bn/moving_variance", "shape": [80], "dtype": "float32"}, {"name": "block4b_expand_bn/moving_mean", "shape": [480], "dtype": "float32"}, {"name": "block4b_expand_bn/moving_variance", "shape": [480], "dtype": "float32"}, {"name": "block4b_bn/moving_mean", "shape": [480], "dtype": "float32"}, {"name": "block4b_bn/moving_variance", "shape": [480], "dtype": "float32"}, {"name": "block4b_project_bn/moving_mean", "shape": [80], "dtype": "float32"}, {"name": "block4b_project_bn/moving_variance", "shape": [80], "dtype": "float32"}, {"name": "block4c_expand_bn/moving_mean", "shape": [480], "dtype": "float32"}, {"name": "block4c_expand_bn/moving_variance", "shape": [480], "dtype": "float32"}, {"name": "block4c_bn/moving_mean", "shape": [480], "dtype": "float32"}, {"name": "block4c_bn/moving_variance", "shape": [480], "dtype": "float32"}, {"name": "block4c_project_bn/moving_mean", "shape": [80], "dtype": "float32"}, {"name": "block4c_project_bn/moving_variance", "shape": [80], "dtype": "float32"}, {"name": "block5a_expand_bn/moving_mean", "shape": [480], "dtype": "float32"}, {"name": "block5a_expand_bn/moving_variance", "shape": [480], "dtype": "float32"}, {"name": "block5a_bn/moving_mean", "shape": [480], "dtype": "float32"}, {"name": "block5a_bn/moving_variance", "shape": [480], "dtype": "float32"}, {"name": "block5a_project_bn/moving_mean", "shape": [112], "dtype": "float32"}, {"name": "block5a_project_bn/moving_variance", "shape": [112], "dtype": "float32"}, {"name": "block5b_expand_bn/moving_mean", "shape": [672], "dtype": "float32"}, {"name": "block5b_expand_bn/moving_variance", "shape": [672], "dtype": "float32"}, {"name": "block5b_bn/moving_mean", "shape": [672], "dtype": "float32"}, {"name": "block5b_bn/moving_variance", "shape": [672], "dtype": "float32"}, {"name": "block5b_project_bn/moving_mean", "shape": [112], "dtype": "float32"}, {"name": "block5b_project_bn/moving_variance", "shape": [112], "dtype": "float32"}, {"name": "block5c_expand_bn/moving_mean", "shape": [672], "dtype": "float32"}, {"name": "block5c_expand_bn/moving_variance", "shape": [672], "dtype": "float32"}, {"name": "block5c_bn/moving_mean", "shape": [672], "dtype": "float32"}, {"name": "block5c_bn/moving_variance", "shape": [672], "dtype": "float32"}, {"name": "block5c_project_bn/moving_mean", "shape": [112], "dtype": "float32"}, {"name": "block5c_project_bn/moving_variance", "shape": [112], "dtype": "float32"}, {"name": "block6a_expand_bn/moving_mean", "shape": [672], "dtype": "float32"}, {"name": "block6a_expand_bn/moving_variance", "shape": [672], "dtype": "float32"}, {"name": "block6a_bn/moving_mean", "shape": [672], "dtype": "float32"}, {"name": "block6a_bn/moving_variance", "shape": [672], "dtype": "float32"}, {"name": "block6a_project_bn/moving_mean", "shape": [192], "dtype": "float32"}, {"name": "block6a_project_bn/moving_variance", "shape": [192], "dtype": "float32"}, {"name": "block6b_expand_bn/moving_mean", "shape": [1152], "dtype": "float32"}, {"name": "block6b_expand_bn/moving_variance", "shape": [1152], "dtype": "float32"}, {"name": "block6b_bn/moving_mean", "shape": [1152], "dtype": "float32"}, {"name": "block6b_bn/moving_variance", "shape": [1152], "dtype": "float32"}, {"name": "block6b_project_bn/moving_mean", "shape": [192], "dtype": "float32"}, {"name": "block6b_project_bn/moving_variance", "shape": [192], "dtype": "float32"}, {"name": "block6c_expand_bn/moving_mean", "shape": [1152], "dtype": "float32"}, {"name": "block6c_expand_bn/moving_variance", "shape": [1152], "dtype": "float32"}, {"name": "block6c_bn/moving_mean", "shape": [1152], "dtype": "float32"}, {"name": "block6c_bn/moving_variance", "shape": [1152], "dtype": "float32"}, {"name": "block6c_project_bn/moving_mean", "shape": [192], "dtype": "float32"}, {"name": "block6c_project_bn/moving_variance", "shape": [192], "dtype": "float32"}, {"name": "block6d_expand_bn/moving_mean", "shape": [1152], "dtype": "float32"}, {"name": "block6d_expand_bn/moving_variance", "shape": [1152], "dtype": "float32"}, {"name": "block6d_bn/moving_mean", "shape": [1152], "dtype": "float32"}, {"name": "block6d_bn/moving_variance", "shape": [1152], "dtype": "float32"}, {"name": "block6d_project_bn/moving_mean", "shape": [192], "dtype": "float32"}, {"name": "block6d_project_bn/moving_variance", "shape": [192], "dtype": "float32"}, {"name": "block7a_expand_bn/moving_mean", "shape": [1152], "dtype": "float32"}, {"name": "block7a_expand_bn/moving_variance", "shape": [1152], "dtype": "float32"}, {"name": "block7a_bn/moving_mean", "shape": [1152], "dtype": "float32"}, {"name": "block7a_bn/moving_variance", "shape": [1152], "dtype": "float32"}, {"name": "block7a_project_bn/moving_mean", "shape": [320], "dtype": "float32"}, {"name": "block7a_project_bn/moving_variance", "shape": [320], "dtype": "float32"}, {"name": "top_bn/moving_mean", "shape": [1280], "dtype": "float32"}, {"name": "top_bn/moving_variance", "shape": [1280], "dtype": "float32"}, {"name": "Embeddings/sharded_0", "shape": [26667, 320], "dtype": "float32"}, {"name": "Embeddings/sharded_1", "shape": [26667, 320], "dtype": "float32"}, {"name": "Embeddings/sharded_2", "shape": [26667, 320], "dtype": "float32"}, {"name": "Embeddings/sharded_3", "shape": [26667, 320], "dtype": "float32"}, {"name": "Embeddings/sharded_4", "shape": [26667, 320], "dtype": "float32"}, {"name": "Embeddings/sharded_5", "shape": [26667, 320], "dtype": "float32"}, {"name": "Embeddings/sharded_6", "shape": [26667, 320], "dtype": "float32"}, {"name": "Embeddings/sharded_7", "shape": [26667, 320], "dtype": "float32"}, {"name": "Embeddings/sharded_8", "shape": [26667, 320], "dtype": "float32"}, {"name": "Embeddings/sharded_9", "shape": [26667, 320], "dtype": "float32"}, {"name": "Embeddings/sharded_10", "shape": [26667, 320], "dtype": "float32"}, {"name": "Embeddings/sharded_11", "shape": [26667, 320], "dtype": "float32"}, {"name": "Embeddings/sharded_12", "shape": [26667, 320], "dtype": "float32"}, {"name": "Embeddings/sharded_13", "shape": [26667, 320], "dtype": "float32"}, {"name": "Embeddings/sharded_14", "shape": [26667, 320], "dtype": "float32"}, {"name": "Embeddings/sharded_15", "shape": [26667, 320], "dtype": "float32"}, {"name": "Embeddings/sharded_16", "shape": [26667, 320], "dtype": "float32"}, {"name": "Embeddings/sharded_17", "shape": [26667, 320], "dtype": "float32"}, {"name": "Embeddings/sharded_18", "shape": [26667, 320], "dtype": "float32"}, {"name": "Embeddings/sharded_19", "shape": [26667, 320], "dtype": "float32"}, {"name": "Embeddings/sharded_20", "shape": [26667, 320], "dtype": "float32"}, {"name": "Embeddings/sharded_21", "shape": [26667, 320], "dtype": "float32"}, {"name": "Embeddings/sharded_22", "shape": [26667, 320], "dtype": "float32"}, {"name": "Embeddings/sharded_23", "shape": [26667, 320], "dtype": "float32"}, {"name": "Embeddings/sharded_24", "shape": [26667, 320], "dtype": "float32"}, {"name": "Embeddings/sharded_25", "shape": [26667, 320], "dtype": "float32"}, {"name": "Embeddings/sharded_26", "shape": [26667, 320], "dtype": "float32"}, {"name": "Embeddings/sharded_27", "shape": [26667, 320], "dtype": "float32"}, {"name": "Embeddings/sharded_28", "shape": [26667, 320], "dtype": "float32"}, {"name": "Embeddings/sharded_29", "shape": [26667, 320], "dtype": "float32"}, {"name": "EncoderDNN/DNN/ResidualHidden_0/dense/kernel/part_0", "shape": [11, 320], "dtype": "float32"}, {"name": "EncoderDNN/DNN/ResidualHidden_0/dense/kernel/part_1", "shape": [11, 320], "dtype": "float32"}, {"name": "EncoderDNN/DNN/ResidualHidden_0/dense/kernel/part_2", "shape": [11, 320], "dtype": "float32"}, {"name": "EncoderDNN/DNN/ResidualHidden_0/dense/kernel/part_3", "shape": [11, 320], "dtype": "float32"}, {"name": "EncoderDNN/DNN/ResidualHidden_0/dense/kernel/part_4", "shape": [11, 320], "dtype": "float32"}, {"name": "EncoderDNN/DNN/ResidualHidden_0/dense/kernel/part_5", "shape": [11, 320], "dtype": "float32"}, {"name": "EncoderDNN/DNN/ResidualHidden_0/dense/kernel/part_6", "shape": [11, 320], "dtype": "float32"}, {"name": "EncoderDNN/DNN/ResidualHidden_0/dense/kernel/part_7", "shape": [11, 320], "dtype": "float32"}, {"name": "EncoderDNN/DNN/ResidualHidden_0/dense/kernel/part_8", "shape": [11, 320], "dtype": "float32"}, {"name": "EncoderDNN/DNN/ResidualHidden_0/dense/kernel/part_9", "shape": [11, 320], "dtype": "float32"}, {"name": "EncoderDNN/DNN/ResidualHidden_0/dense/kernel/part_10", "shape": [11, 320], "dtype": "float32"}, {"name": "EncoderDNN/DNN/ResidualHidden_0/dense/kernel/part_11", "shape": [11, 320], "dtype": "float32"}, {"name": "EncoderDNN/DNN/ResidualHidden_0/dense/kernel/part_12", "shape": [11, 320], "dtype": "float32"}, {"name": "EncoderDNN/DNN/ResidualHidden_0/dense/kernel/part_13", "shape": [11, 320], "dtype": "float32"}, {"name": "EncoderDNN/DNN/ResidualHidden_0/dense/kernel/part_14", "shape": [11, 320], "dtype": "float32"}, {"name": "EncoderDNN/DNN/ResidualHidden_0/dense/kernel/part_15", "shape": [11, 320], "dtype": "float32"}, {"name": "EncoderDNN/DNN/ResidualHidden_0/dense/kernel/part_16", "shape": [11, 320], "dtype": "float32"}, {"name": "EncoderDNN/DNN/ResidualHidden_0/dense/kernel/part_17", "shape": [11, 320], "dtype": "float32"}, {"name": "EncoderDNN/DNN/ResidualHidden_0/dense/kernel/part_18", "shape": [11, 320], "dtype": "float32"}, {"name": "EncoderDNN/DNN/ResidualHidden_0/dense/kernel/part_19", "shape": [11, 320], "dtype": "float32"}, {"name": "EncoderDNN/DNN/ResidualHidden_0/dense/kernel/part_20", "shape": [10, 320], "dtype": "float32"}, {"name": "EncoderDNN/DNN/ResidualHidden_0/dense/kernel/part_21", "shape": [10, 320], "dtype": "float32"}, {"name": "EncoderDNN/DNN/ResidualHidden_0/dense/kernel/part_22", "shape": [10, 320], "dtype": "float32"}, {"name": "EncoderDNN/DNN/ResidualHidden_0/dense/kernel/part_23", "shape": [10, 320], "dtype": "float32"}, {"name": "EncoderDNN/DNN/ResidualHidden_0/dense/kernel/part_24", "shape": [10, 320], "dtype": "float32"}, {"name": "EncoderDNN/DNN/ResidualHidden_0/dense/kernel/part_25", "shape": [10, 320], "dtype": "float32"}, {"name": "EncoderDNN/DNN/ResidualHidden_0/dense/kernel/part_26", "shape": [10, 320], "dtype": "float32"}, {"name": "EncoderDNN/DNN/ResidualHidden_0/dense/kernel/part_27", "shape": [10, 320], "dtype": "float32"}, {"name": "EncoderDNN/DNN/ResidualHidden_0/dense/kernel/part_28", "shape": [10, 320], "dtype": "float32"}, {"name": "EncoderDNN/DNN/ResidualHidden_0/dense/kernel/part_29", "shape": [10, 320], "dtype": "float32"}, {"name": "EncoderDNN/DNN/ResidualHidden_1/dense/kernel/part_0", "shape": [11, 320], "dtype": "float32"}, {"name": "EncoderDNN/DNN/ResidualHidden_1/dense/kernel/part_1", "shape": [11, 320], "dtype": "float32"}, {"name": "EncoderDNN/DNN/ResidualHidden_1/dense/kernel/part_2", "shape": [11, 320], "dtype": "float32"}, {"name": "EncoderDNN/DNN/ResidualHidden_1/dense/kernel/part_3", "shape": [11, 320], "dtype": "float32"}, {"name": "EncoderDNN/DNN/ResidualHidden_1/dense/kernel/part_4", "shape": [11, 320], "dtype": "float32"}, {"name": "EncoderDNN/DNN/ResidualHidden_1/dense/kernel/part_5", "shape": [11, 320], "dtype": "float32"}, {"name": "EncoderDNN/DNN/ResidualHidden_1/dense/kernel/part_6", "shape": [11, 320], "dtype": "float32"}, {"name": "EncoderDNN/DNN/ResidualHidden_1/dense/kernel/part_7", "shape": [11, 320], "dtype": "float32"}, {"name": "EncoderDNN/DNN/ResidualHidden_1/dense/kernel/part_8", "shape": [11, 320], "dtype": "float32"}, {"name": "EncoderDNN/DNN/ResidualHidden_1/dense/kernel/part_9", "shape": [11, 320], "dtype": "float32"}, {"name": "EncoderDNN/DNN/ResidualHidden_1/dense/kernel/part_10", "shape": [11, 320], "dtype": "float32"}, {"name": "EncoderDNN/DNN/ResidualHidden_1/dense/kernel/part_11", "shape": [11, 320], "dtype": "float32"}, {"name": "EncoderDNN/DNN/ResidualHidden_1/dense/kernel/part_12", "shape": [11, 320], "dtype": "float32"}, {"name": "EncoderDNN/DNN/ResidualHidden_1/dense/kernel/part_13", "shape": [11, 320], "dtype": "float32"}, {"name": "EncoderDNN/DNN/ResidualHidden_1/dense/kernel/part_14", "shape": [11, 320], "dtype": "float32"}, {"name": "EncoderDNN/DNN/ResidualHidden_1/dense/kernel/part_15", "shape": [11, 320], "dtype": "float32"}, {"name": "EncoderDNN/DNN/ResidualHidden_1/dense/kernel/part_16", "shape": [11, 320], "dtype": "float32"}, {"name": "EncoderDNN/DNN/ResidualHidden_1/dense/kernel/part_17", "shape": [11, 320], "dtype": "float32"}, {"name": "EncoderDNN/DNN/ResidualHidden_1/dense/kernel/part_18", "shape": [11, 320], "dtype": "float32"}, {"name": "EncoderDNN/DNN/ResidualHidden_1/dense/kernel/part_19", "shape": [11, 320], "dtype": "float32"}, {"name": "EncoderDNN/DNN/ResidualHidden_1/dense/kernel/part_20", "shape": [10, 320], "dtype": "float32"}, {"name": "EncoderDNN/DNN/ResidualHidden_1/dense/kernel/part_21", "shape": [10, 320], "dtype": "float32"}, {"name": "EncoderDNN/DNN/ResidualHidden_1/dense/kernel/part_22", "shape": [10, 320], "dtype": "float32"}, {"name": "EncoderDNN/DNN/ResidualHidden_1/dense/kernel/part_23", "shape": [10, 320], "dtype": "float32"}, {"name": "EncoderDNN/DNN/ResidualHidden_1/dense/kernel/part_24", "shape": [10, 320], "dtype": "float32"}, {"name": "EncoderDNN/DNN/ResidualHidden_1/dense/kernel/part_25", "shape": [10, 320], "dtype": "float32"}, {"name": "EncoderDNN/DNN/ResidualHidden_1/dense/kernel/part_26", "shape": [10, 320], "dtype": "float32"}, {"name": "EncoderDNN/DNN/ResidualHidden_1/dense/kernel/part_27", "shape": [10, 320], "dtype": "float32"}, {"name": "EncoderDNN/DNN/ResidualHidden_1/dense/kernel/part_28", "shape": [10, 320], "dtype": "float32"}, {"name": "EncoderDNN/DNN/ResidualHidden_1/dense/kernel/part_29", "shape": [10, 320], "dtype": "float32"}, {"name": "EncoderDNN/DNN/ResidualHidden_2/dense/kernel/part_0", "shape": [11, 512], "dtype": "float32"}, {"name": "EncoderDNN/DNN/ResidualHidden_2/dense/kernel/part_1", "shape": [11, 512], "dtype": "float32"}, {"name": "EncoderDNN/DNN/ResidualHidden_2/dense/kernel/part_2", "shape": [11, 512], "dtype": "float32"}, {"name": "EncoderDNN/DNN/ResidualHidden_2/dense/kernel/part_3", "shape": [11, 512], "dtype": "float32"}, {"name": "EncoderDNN/DNN/ResidualHidden_2/dense/kernel/part_4", "shape": [11, 512], "dtype": "float32"}, {"name": "EncoderDNN/DNN/ResidualHidden_2/dense/kernel/part_5", "shape": [11, 512], "dtype": "float32"}, {"name": "EncoderDNN/DNN/ResidualHidden_2/dense/kernel/part_6", "shape": [11, 512], "dtype": "float32"}, {"name": "EncoderDNN/DNN/ResidualHidden_2/dense/kernel/part_7", "shape": [11, 512], "dtype": "float32"}, {"name": "EncoderDNN/DNN/ResidualHidden_2/dense/kernel/part_8", "shape": [11, 512], "dtype": "float32"}, {"name": "EncoderDNN/DNN/ResidualHidden_2/dense/kernel/part_9", "shape": [11, 512], "dtype": "float32"}, {"name": "EncoderDNN/DNN/ResidualHidden_2/dense/kernel/part_10", "shape": [11, 512], "dtype": "float32"}, {"name": "EncoderDNN/DNN/ResidualHidden_2/dense/kernel/part_11", "shape": [11, 512], "dtype": "float32"}, {"name": "EncoderDNN/DNN/ResidualHidden_2/dense/kernel/part_12", "shape": [11, 512], "dtype": "float32"}, {"name": "EncoderDNN/DNN/ResidualHidden_2/dense/kernel/part_13", "shape": [11, 512], "dtype": "float32"}, {"name": "EncoderDNN/DNN/ResidualHidden_2/dense/kernel/part_14", "shape": [11, 512], "dtype": "float32"}, {"name": "EncoderDNN/DNN/ResidualHidden_2/dense/kernel/part_15", "shape": [11, 512], "dtype": "float32"}, {"name": "EncoderDNN/DNN/ResidualHidden_2/dense/kernel/part_16", "shape": [11, 512], "dtype": "float32"}, {"name": "EncoderDNN/DNN/ResidualHidden_2/dense/kernel/part_17", "shape": [11, 512], "dtype": "float32"}, {"name": "EncoderDNN/DNN/ResidualHidden_2/dense/kernel/part_18", "shape": [11, 512], "dtype": "float32"}, {"name": "EncoderDNN/DNN/ResidualHidden_2/dense/kernel/part_19", "shape": [11, 512], "dtype": "float32"}, {"name": "EncoderDNN/DNN/ResidualHidden_2/dense/kernel/part_20", "shape": [10, 512], "dtype": "float32"}, {"name": "EncoderDNN/DNN/ResidualHidden_2/dense/kernel/part_21", "shape": [10, 512], "dtype": "float32"}, {"name": "EncoderDNN/DNN/ResidualHidden_2/dense/kernel/part_22", "shape": [10, 512], "dtype": "float32"}, {"name": "EncoderDNN/DNN/ResidualHidden_2/dense/kernel/part_23", "shape": [10, 512], "dtype": "float32"}, {"name": "EncoderDNN/DNN/ResidualHidden_2/dense/kernel/part_24", "shape": [10, 512], "dtype": "float32"}, {"name": "EncoderDNN/DNN/ResidualHidden_2/dense/kernel/part_25", "shape": [10, 512], "dtype": "float32"}, {"name": "EncoderDNN/DNN/ResidualHidden_2/dense/kernel/part_26", "shape": [10, 512], "dtype": "float32"}, {"name": "EncoderDNN/DNN/ResidualHidden_2/dense/kernel/part_27", "shape": [10, 512], "dtype": "float32"}, {"name": "EncoderDNN/DNN/ResidualHidden_2/dense/kernel/part_28", "shape": [10, 512], "dtype": "float32"}, {"name": "EncoderDNN/DNN/ResidualHidden_2/dense/kernel/part_29", "shape": [10, 512], "dtype": "float32"}, {"name": "EncoderDNN/DNN/ResidualHidden_3/dense/kernel/part_0", "shape": [18, 512], "dtype": "float32"}, {"name": "EncoderDNN/DNN/ResidualHidden_3/dense/kernel/part_1", "shape": [18, 512], "dtype": "float32"}, {"name": "EncoderDNN/DNN/ResidualHidden_3/dense/kernel/part_2", "shape": [17, 512], "dtype": "float32"}, {"name": "EncoderDNN/DNN/ResidualHidden_3/dense/kernel/part_3", "shape": [17, 512], "dtype": "float32"}, {"name": "EncoderDNN/DNN/ResidualHidden_3/dense/kernel/part_4", "shape": [17, 512], "dtype": "float32"}, {"name": "EncoderDNN/DNN/ResidualHidden_3/dense/kernel/part_5", "shape": [17, 512], "dtype": "float32"}, {"name": "EncoderDNN/DNN/ResidualHidden_3/dense/kernel/part_6", "shape": [17, 512], "dtype": "float32"}, {"name": "EncoderDNN/DNN/ResidualHidden_3/dense/kernel/part_7", "shape": [17, 512], "dtype": "float32"}, {"name": "EncoderDNN/DNN/ResidualHidden_3/dense/kernel/part_8", "shape": [17, 512], "dtype": "float32"}, {"name": "EncoderDNN/DNN/ResidualHidden_3/dense/kernel/part_9", "shape": [17, 512], "dtype": "float32"}, {"name": "EncoderDNN/DNN/ResidualHidden_3/dense/kernel/part_10", "shape": [17, 512], "dtype": "float32"}, {"name": "EncoderDNN/DNN/ResidualHidden_3/dense/kernel/part_11", "shape": [17, 512], "dtype": "float32"}, {"name": "EncoderDNN/DNN/ResidualHidden_3/dense/kernel/part_12", "shape": [17, 512], "dtype": "float32"}, {"name": "EncoderDNN/DNN/ResidualHidden_3/dense/kernel/part_13", "shape": [17, 512], "dtype": "float32"}, {"name": "EncoderDNN/DNN/ResidualHidden_3/dense/kernel/part_14", "shape": [17, 512], "dtype": "float32"}, {"name": "EncoderDNN/DNN/ResidualHidden_3/dense/kernel/part_15", "shape": [17, 512], "dtype": "float32"}, {"name": "EncoderDNN/DNN/ResidualHidden_3/dense/kernel/part_16", "shape": [17, 512], "dtype": "float32"}, {"name": "EncoderDNN/DNN/ResidualHidden_3/dense/kernel/part_17", "shape": [17, 512], "dtype": "float32"}, {"name": "EncoderDNN/DNN/ResidualHidden_3/dense/kernel/part_18", "shape": [17, 512], "dtype": "float32"}, {"name": "EncoderDNN/DNN/ResidualHidden_3/dense/kernel/part_19", "shape": [17, 512], "dtype": "float32"}, {"name": "EncoderDNN/DNN/ResidualHidden_3/dense/kernel/part_20", "shape": [17, 512], "dtype": "float32"}, {"name": "EncoderDNN/DNN/ResidualHidden_3/dense/kernel/part_21", "shape": [17, 512], "dtype": "float32"}, {"name": "EncoderDNN/DNN/ResidualHidden_3/dense/kernel/part_22", "shape": [17, 512], "dtype": "float32"}, {"name": "EncoderDNN/DNN/ResidualHidden_3/dense/kernel/part_23", "shape": [17, 512], "dtype": "float32"}, {"name": "EncoderDNN/DNN/ResidualHidden_3/dense/kernel/part_24", "shape": [17, 512], "dtype": "float32"}, {"name": "EncoderDNN/DNN/ResidualHidden_3/dense/kernel/part_25", "shape": [17, 512], "dtype": "float32"}, {"name": "EncoderDNN/DNN/ResidualHidden_3/dense/kernel/part_26", "shape": [17, 512], "dtype": "float32"}, {"name": "EncoderDNN/DNN/ResidualHidden_3/dense/kernel/part_27", "shape": [17, 512], "dtype": "float32"}, {"name": "EncoderDNN/DNN/ResidualHidden_3/dense/kernel/part_28", "shape": [17, 512], "dtype": "float32"}, {"name": "EncoderDNN/DNN/ResidualHidden_3/dense/kernel/part_29", "shape": [17, 512], "dtype": "float32"}, {"name": "EncoderDNN/DNN/ResidualHidden_3/AdjustDepth/projection/kernel/part_0", "shape": [11, 512], "dtype": "float32"}, {"name": "EncoderDNN/DNN/ResidualHidden_3/AdjustDepth/projection/kernel/part_1", "shape": [11, 512], "dtype": "float32"}, {"name": "EncoderDNN/DNN/ResidualHidden_3/AdjustDepth/projection/kernel/part_2", "shape": [11, 512], "dtype": "float32"}, {"name": "EncoderDNN/DNN/ResidualHidden_3/AdjustDepth/projection/kernel/part_3", "shape": [11, 512], "dtype": "float32"}, {"name": "EncoderDNN/DNN/ResidualHidden_3/AdjustDepth/projection/kernel/part_4", "shape": [11, 512], "dtype": "float32"}, {"name": "EncoderDNN/DNN/ResidualHidden_3/AdjustDepth/projection/kernel/part_5", "shape": [11, 512], "dtype": "float32"}, {"name": "EncoderDNN/DNN/ResidualHidden_3/AdjustDepth/projection/kernel/part_6", "shape": [11, 512], "dtype": "float32"}, {"name": "EncoderDNN/DNN/ResidualHidden_3/AdjustDepth/projection/kernel/part_7", "shape": [11, 512], "dtype": "float32"}, {"name": "EncoderDNN/DNN/ResidualHidden_3/AdjustDepth/projection/kernel/part_8", "shape": [11, 512], "dtype": "float32"}, {"name": "EncoderDNN/DNN/ResidualHidden_3/AdjustDepth/projection/kernel/part_9", "shape": [11, 512], "dtype": "float32"}, {"name": "EncoderDNN/DNN/ResidualHidden_3/AdjustDepth/projection/kernel/part_10", "shape": [11, 512], "dtype": "float32"}, {"name": "EncoderDNN/DNN/ResidualHidden_3/AdjustDepth/projection/kernel/part_11", "shape": [11, 512], "dtype": "float32"}, {"name": "EncoderDNN/DNN/ResidualHidden_3/AdjustDepth/projection/kernel/part_12", "shape": [11, 512], "dtype": "float32"}, {"name": "EncoderDNN/DNN/ResidualHidden_3/AdjustDepth/projection/kernel/part_13", "shape": [11, 512], "dtype": "float32"}, {"name": "EncoderDNN/DNN/ResidualHidden_3/AdjustDepth/projection/kernel/part_14", "shape": [11, 512], "dtype": "float32"}, {"name": "EncoderDNN/DNN/ResidualHidden_3/AdjustDepth/projection/kernel/part_15", "shape": [11, 512], "dtype": "float32"}, {"name": "EncoderDNN/DNN/ResidualHidden_3/AdjustDepth/projection/kernel/part_16", "shape": [11, 512], "dtype": "float32"}, {"name": "EncoderDNN/DNN/ResidualHidden_3/AdjustDepth/projection/kernel/part_17", "shape": [11, 512], "dtype": "float32"}, {"name": "EncoderDNN/DNN/ResidualHidden_3/AdjustDepth/projection/kernel/part_18", "shape": [11, 512], "dtype": "float32"}, {"name": "EncoderDNN/DNN/ResidualHidden_3/AdjustDepth/projection/kernel/part_19", "shape": [11, 512], "dtype": "float32"}, {"name": "EncoderDNN/DNN/ResidualHidden_3/AdjustDepth/projection/kernel/part_20", "shape": [10, 512], "dtype": "float32"}, {"name": "EncoderDNN/DNN/ResidualHidden_3/AdjustDepth/projection/kernel/part_21", "shape": [10, 512], "dtype": "float32"}, {"name": "EncoderDNN/DNN/ResidualHidden_3/AdjustDepth/projection/kernel/part_22", "shape": [10, 512], "dtype": "float32"}, {"name": "EncoderDNN/DNN/ResidualHidden_3/AdjustDepth/projection/kernel/part_23", "shape": [10, 512], "dtype": "float32"}, {"name": "EncoderDNN/DNN/ResidualHidden_3/AdjustDepth/projection/kernel/part_24", "shape": [10, 512], "dtype": "float32"}, {"name": "EncoderDNN/DNN/ResidualHidden_3/AdjustDepth/projection/kernel/part_25", "shape": [10, 512], "dtype": "float32"}, {"name": "EncoderDNN/DNN/ResidualHidden_3/AdjustDepth/projection/kernel/part_26", "shape": [10, 512], "dtype": "float32"}, {"name": "EncoderDNN/DNN/ResidualHidden_3/AdjustDepth/projection/kernel/part_27", "shape": [10, 512], "dtype": "float32"}, {"name": "EncoderDNN/DNN/ResidualHidden_3/AdjustDepth/projection/kernel/part_28", "shape": [10, 512], "dtype": "float32"}, {"name": "EncoderDNN/DNN/ResidualHidden_3/AdjustDepth/projection/kernel/part_29", "shape": [10, 512], "dtype": "float32"}]}]}